…
I0324 16:40:48.860061 28113 net.cpp:275] The NetState phase (0) differed from the phase (1) specified by a rule in layer data
I0324 16:40:48.860376 28113 net.cpp:39] Initializing net from parameters: 
name: "dl_large_fov_phase_1"
layers {
  top: "data"
  top: "label"
  name: "data"
  type: IMAGE_SEG_DATA
  image_data_param {
    source: "/home/thanhnt/phase_1/data/train_list.txt"
    batch_size: 1
    shuffle: true
    root_folder: "/home/thanhnt/phase_1/data/"
    label_type: PIXEL
  }
  include {
    phase: TRAIN
  }
  transform_param {
    mirror: true
    crop_size: 500
    mean_value: 144.15103
    mean_value: 157.14572
    mean_value: 184.01074
  }
}
layers {
  bottom: "data"
  top: "conv1_1"
  name: "conv1_1"
  type: CONVOLUTION
  blobs_lr: 0
  blobs_lr: 0
  weight_decay: 0
  weight_decay: 0
  convolution_param {
    num_output: 64
    pad: 1
    kernel_size: 3
  }
}
layers {
  bottom: "conv1_1"
  top: "conv1_1"
  name: "relu1_1"
  type: RELU
}
layers {
  bottom: "conv1_1"
  top: "conv1_2"
  name: "conv1_2"
  type: CONVOLUTION
  blobs_lr: 0
  blobs_lr: 0
  weight_decay: 0
  weight_decay: 0
  convolution_param {
    num_output: 64
    pad: 1
    kernel_size: 3
  }
}
layers {
  bottom: "conv1_2"
  top: "conv1_2"
  name: "relu1_2"
  type: RELU
}
layers {
  bottom: "conv1_2"
  top: "pool1"
  name: "pool1"
  type: POOLING
  pooling_param {
    pool: MAX
    kernel_size: 3
    stride: 2
    pad: 1
  }
}
layers {
  bottom: "pool1"
  top: "conv2_1"
  name: "conv2_1"
  type: CONVOLUTION
  blobs_lr: 0
  blobs_lr: 0
  weight_decay: 0
  weight_decay: 0
  convolution_param {
    num_output: 128
    pad: 1
    kernel_size: 3
  }
}
layers {
  bottom: "conv2_1"
  top: "conv2_1"
  name: "relu2_1"
  type: RELU
}
layers {
  bottom: "conv2_1"
  top: "conv2_2"
  name: "conv2_2"
  type: CONVOLUTION
  blobs_lr: 0
  blobs_lr: 0
  weight_decay: 0
  weight_decay: 0
  convolution_param {
    num_output: 128
    pad: 1
    kernel_size: 3
  }
}
layers {
  bottom: "conv2_2"
  top: "conv2_2"
  name: "relu2_2"
  type: RELU
}
layers {
  bottom: "conv2_2"
  top: "pool2"
  name: "pool2"
  type: POOLING
  pooling_param {
    pool: MAX
    kernel_size: 3
    stride: 2
    pad: 1
  }
}
layers {
  bottom: "pool2"
  top: "conv3_1"
  name: "conv3_1"
  type: CONVOLUTION
  blobs_lr: 0
  blobs_lr: 0
  weight_decay: 0
  weight_decay: 0
  convolution_param {
    num_output: 256
    pad: 1
    kernel_size: 3
  }
}
layers {
  bottom: "conv3_1"
  top: "conv3_1"
  name: "relu3_1"
  type: RELU
}
layers {
  bottom: "conv3_1"
  top: "conv3_2"
  name: "conv3_2"
  type: CONVOLUTION
  blobs_lr: 0
  blobs_lr: 0
  weight_decay: 0
  weight_decay: 0
  convolution_param {
    num_output: 256
    pad: 1
    kernel_size: 3
  }
}
layers {
  bottom: "conv3_2"
  top: "conv3_2"
  name: "relu3_2"
  type: RELU
}
layers {
  bottom: "conv3_2"
  top: "conv3_3"
  name: "conv3_3"
  type: CONVOLUTION
  blobs_lr: 0
  blobs_lr: 0
  weight_decay: 0
  weight_decay: 0
  convolution_param {
    num_output: 256
    pad: 1
    kernel_size: 3
  }
}
layers {
  bottom: "conv3_3"
  top: "conv3_3"
  name: "relu3_3"
  type: RELU
}
layers {
  bottom: "conv3_3"
  top: "pool3"
  name: "pool3"
  type: POOLING
  pooling_param {
    pool: MAX
    kernel_size: 3
    stride: 2
    pad: 1
  }
}
layers {
  bottom: "pool3"
  top: "conv4_1"
  name: "conv4_1"
  type: CONVOLUTION
  blobs_lr: 0
  blobs_lr: 0
  weight_decay: 0
  weight_decay: 0
  convolution_param {
    num_output: 512
    pad: 1
    kernel_size: 3
  }
}
layers {
  bottom: "conv4_1"
  top: "conv4_1"
  name: "relu4_1"
  type: RELU
}
layers {
  bottom: "conv4_1"
  top: "conv4_2"
  name: "conv4_2"
  type: CONVOLUTION
  blobs_lr: 0
  blobs_lr: 0
  weight_decay: 0
  weight_decay: 0
  convolution_param {
    num_output: 512
    pad: 1
    kernel_size: 3
  }
}
layers {
  bottom: "conv4_2"
  top: "conv4_2"
  name: "relu4_2"
  type: RELU
}
layers {
  bottom: "conv4_2"
  top: "conv4_3"
  name: "conv4_3"
  type: CONVOLUTION
  blobs_lr: 0
  blobs_lr: 0
  weight_decay: 0
  weight_decay: 0
  convolution_param {
    num_output: 512
    pad: 1
    kernel_size: 3
  }
}
layers {
  bottom: "conv4_3"
  top: "conv4_3"
  name: "relu4_3"
  type: RELU
}
layers {
  bottom: "conv4_3"
  top: "pool4"
  name: "pool4"
  type: POOLING
  pooling_param {
    pool: MAX
    kernel_size: 3
    stride: 1
    pad: 1
  }
}
layers {
  bottom: "pool4"
  top: "conv5_1"
  name: "conv5_1"
  type: CONVOLUTION
  blobs_lr: 1
  blobs_lr: 2
  weight_decay: 1
  weight_decay: 0
  convolution_param {
    num_output: 512
    pad: 2
    kernel_size: 3
    hole: 2
  }
}
layers {
  bottom: "conv5_1"
  top: "conv5_1"
  name: "relu5_1"
  type: RELU
}
layers {
  bottom: "conv5_1"
  top: "conv5_2"
  name: "conv5_2"
  type: CONVOLUTION
  blobs_lr: 1
  blobs_lr: 2
  weight_decay: 1
  weight_decay: 0
  convolution_param {
    num_output: 512
    pad: 2
    kernel_size: 3
    hole: 2
  }
}
layers {
  bottom: "conv5_2"
  top: "conv5_2"
  name: "relu5_2"
  type: RELU
}
layers {
  bottom: "conv5_2"
  top: "conv5_3"
  name: "conv5_3"
  type: CONVOLUTION
  blobs_lr: 1
  blobs_lr: 2
  weight_decay: 1
  weight_decay: 0
  convolution_param {
    num_output: 512
    pad: 2
    kernel_size: 3
    hole: 2
  }
}
layers {
  bottom: "conv5_3"
  top: "conv5_3"
  name: "relu5_3"
  type: RELU
}
layers {
  bottom: "conv5_3"
  top: "pool5"
  name: "pool5"
  type: POOLING
  pooling_param {
    pool: MAX
    kernel_size: 3
    stride: 1
    pad: 1
  }
}
layers {
  bottom: "pool5"
  top: "pool5a"
  name: "pool5a"
  type: POOLING
  pooling_param {
    pool: AVE
    kernel_size: 3
    stride: 1
    pad: 1
  }
}
layers {
  bottom: "pool5a"
  top: "fc6"
  name: "fc6"
  type: CONVOLUTION
  blobs_lr: 1
  blobs_lr: 2
  weight_decay: 1
  weight_decay: 0
  convolution_param {
    num_output: 1024
    pad: 12
    kernel_size: 3
    hole: 12
  }
}
layers {
  bottom: "fc6"
  top: "fc6"
  name: "relu6"
  type: RELU
}
layers {
  bottom: "fc6"
  top: "fc6"
  name: "drop6"
  type: DROPOUT
  dropout_param {
    dropout_ratio: 0.5
  }
}
layers {
  bottom: "fc6"
  top: "fc7"
  name: "fc7"
  type: CONVOLUTION
  blobs_lr: 1
  blobs_lr: 2
  weight_decay: 1
  weight_decay: 0
  convolution_param {
    num_output: 1024
    kernel_size: 1
  }
}
layers {
  bottom: "fc7"
  top: "fc7"
  name: "relu7"
  type: RELU
}
layers {
  bottom: "fc7"
  top: "fc7"
  name: "drop7"
  type: DROPOUT
  dropout_param {
    dropout_ratio: 0.5
  }
}
layers {
  bottom: "fc7"
  top: "fc8_baxter"
  name: "fc8_baxter"
  type: CONVOLUTION
  blobs_lr: 1
  blobs_lr: 2
  weight_decay: 1
  weight_decay: 0
  convolution_param {
    num_output: 2
    kernel_size: 1
    weight_filler {
      type: "gaussian"
      std: 0.01
    }
    bias_filler {
      type: "constant"
      value: 0
    }
  }
}
layers {
  bottom: "fc8_baxter"
  top: "upscore"
  name: "upscore"
  type: INTERP
  interp_param {
    height: 500
    width: 500
  }
}
layers {
  bottom: "upscore"
  bottom: "label"
  top: "loss"
  name: "loss"
  type: SOFTMAX_LOSS
}
state {
  phase: TRAIN
}
I0324 16:40:48.860591 28113 layer_factory.hpp:78] Creating layer data
I0324 16:40:48.860628 28113 net.cpp:67] Creating Layer data
I0324 16:40:48.860641 28113 net.cpp:356] data -> data
I0324 16:40:48.860677 28113 net.cpp:356] data -> label
I0324 16:40:48.860694 28113 net.cpp:356] data -> (automatic)
I0324 16:40:48.860707 28113 net.cpp:96] Setting up data
I0324 16:40:48.860718 28113 image_seg_data_layer.cpp:45] Opening file /home/thanhnt/phase_1/data/train_list.txt
I0324 16:40:48.861963 28113 image_seg_data_layer.cpp:62] Shuffling data
I0324 16:40:48.862550 28113 image_seg_data_layer.cpp:67] A total of 810 images.
I0324 16:40:48.872571 28113 image_seg_data_layer.cpp:113] output data size: 1,3,500,500
I0324 16:40:48.872601 28113 image_seg_data_layer.cpp:117] output label size: 1,1,500,500
I0324 16:40:48.872611 28113 image_seg_data_layer.cpp:121] output data_dim size: 1,1,1,2
I0324 16:40:48.874553 28113 net.cpp:103] Top shape: 1 3 500 500 (750000)
I0324 16:40:48.874572 28113 net.cpp:103] Top shape: 1 1 500 500 (250000)
I0324 16:40:48.874580 28113 net.cpp:103] Top shape: 1 1 1 2 (2)
I0324 16:40:48.874588 28113 layer_factory.hpp:78] Creating layer conv1_1
I0324 16:40:48.874603 28113 net.cpp:67] Creating Layer conv1_1
I0324 16:40:48.874613 28113 net.cpp:394] conv1_1 <- data
I0324 16:40:48.874631 28113 net.cpp:356] conv1_1 -> conv1_1
I0324 16:40:48.874646 28113 net.cpp:96] Setting up conv1_1
I0324 16:40:48.875238 28113 net.cpp:103] Top shape: 1 64 500 500 (16000000)
I0324 16:40:48.875264 28113 layer_factory.hpp:78] Creating layer relu1_1
I0324 16:40:48.875277 28113 net.cpp:67] Creating Layer relu1_1
I0324 16:40:48.875286 28113 net.cpp:394] relu1_1 <- conv1_1
I0324 16:40:48.875300 28113 net.cpp:345] relu1_1 -> conv1_1 (in-place)
I0324 16:40:48.875313 28113 net.cpp:96] Setting up relu1_1
I0324 16:40:48.875388 28113 net.cpp:103] Top shape: 1 64 500 500 (16000000)
I0324 16:40:48.875401 28113 layer_factory.hpp:78] Creating layer conv1_2
I0324 16:40:48.875412 28113 net.cpp:67] Creating Layer conv1_2
I0324 16:40:48.875421 28113 net.cpp:394] conv1_2 <- conv1_1
I0324 16:40:48.875434 28113 net.cpp:356] conv1_2 -> conv1_2
I0324 16:40:48.875448 28113 net.cpp:96] Setting up conv1_2
I0324 16:40:48.876330 28113 net.cpp:103] Top shape: 1 64 500 500 (16000000)
I0324 16:40:48.876353 28113 layer_factory.hpp:78] Creating layer relu1_2
I0324 16:40:48.876379 28113 net.cpp:67] Creating Layer relu1_2
I0324 16:40:48.876389 28113 net.cpp:394] relu1_2 <- conv1_2
I0324 16:40:48.876399 28113 net.cpp:345] relu1_2 -> conv1_2 (in-place)
I0324 16:40:48.876410 28113 net.cpp:96] Setting up relu1_2
I0324 16:40:48.876418 28113 net.cpp:103] Top shape: 1 64 500 500 (16000000)
I0324 16:40:48.876426 28113 layer_factory.hpp:78] Creating layer pool1
I0324 16:40:48.876440 28113 net.cpp:67] Creating Layer pool1
I0324 16:40:48.876448 28113 net.cpp:394] pool1 <- conv1_2
I0324 16:40:48.876457 28113 net.cpp:356] pool1 -> pool1
I0324 16:40:48.876468 28113 net.cpp:96] Setting up pool1
I0324 16:40:48.876492 28113 net.cpp:103] Top shape: 1 64 251 251 (4032064)
I0324 16:40:48.876502 28113 layer_factory.hpp:78] Creating layer conv2_1
I0324 16:40:48.876512 28113 net.cpp:67] Creating Layer conv2_1
I0324 16:40:48.876519 28113 net.cpp:394] conv2_1 <- pool1
I0324 16:40:48.876533 28113 net.cpp:356] conv2_1 -> conv2_1
I0324 16:40:48.876545 28113 net.cpp:96] Setting up conv2_1
I0324 16:40:48.877080 28113 net.cpp:103] Top shape: 1 128 251 251 (8064128)
I0324 16:40:48.877102 28113 layer_factory.hpp:78] Creating layer relu2_1
I0324 16:40:48.877116 28113 net.cpp:67] Creating Layer relu2_1
I0324 16:40:48.877125 28113 net.cpp:394] relu2_1 <- conv2_1
I0324 16:40:48.877137 28113 net.cpp:345] relu2_1 -> conv2_1 (in-place)
I0324 16:40:48.877148 28113 net.cpp:96] Setting up relu2_1
I0324 16:40:48.877157 28113 net.cpp:103] Top shape: 1 128 251 251 (8064128)
I0324 16:40:48.877166 28113 layer_factory.hpp:78] Creating layer conv2_2
I0324 16:40:48.877177 28113 net.cpp:67] Creating Layer conv2_2
I0324 16:40:48.877184 28113 net.cpp:394] conv2_2 <- conv2_1
I0324 16:40:48.877194 28113 net.cpp:356] conv2_2 -> conv2_2
I0324 16:40:48.877205 28113 net.cpp:96] Setting up conv2_2
I0324 16:40:48.877828 28113 net.cpp:103] Top shape: 1 128 251 251 (8064128)
I0324 16:40:48.877847 28113 layer_factory.hpp:78] Creating layer relu2_2
I0324 16:40:48.877857 28113 net.cpp:67] Creating Layer relu2_2
I0324 16:40:48.877864 28113 net.cpp:394] relu2_2 <- conv2_2
I0324 16:40:48.877878 28113 net.cpp:345] relu2_2 -> conv2_2 (in-place)
I0324 16:40:48.877889 28113 net.cpp:96] Setting up relu2_2
I0324 16:40:48.877897 28113 net.cpp:103] Top shape: 1 128 251 251 (8064128)
I0324 16:40:48.877905 28113 layer_factory.hpp:78] Creating layer pool2
I0324 16:40:48.877924 28113 net.cpp:67] Creating Layer pool2
I0324 16:40:48.877943 28113 net.cpp:394] pool2 <- conv2_2
I0324 16:40:48.877957 28113 net.cpp:356] pool2 -> pool2
I0324 16:40:48.877970 28113 net.cpp:96] Setting up pool2
I0324 16:40:48.877981 28113 net.cpp:103] Top shape: 1 128 126 126 (2032128)
I0324 16:40:48.877990 28113 layer_factory.hpp:78] Creating layer conv3_1
I0324 16:40:48.878000 28113 net.cpp:67] Creating Layer conv3_1
I0324 16:40:48.878006 28113 net.cpp:394] conv3_1 <- pool2
I0324 16:40:48.878021 28113 net.cpp:356] conv3_1 -> conv3_1
I0324 16:40:48.878032 28113 net.cpp:96] Setting up conv3_1
I0324 16:40:48.878948 28113 net.cpp:103] Top shape: 1 256 126 126 (4064256)
I0324 16:40:48.878973 28113 layer_factory.hpp:78] Creating layer relu3_1
I0324 16:40:48.878988 28113 net.cpp:67] Creating Layer relu3_1
I0324 16:40:48.878998 28113 net.cpp:394] relu3_1 <- conv3_1
I0324 16:40:48.879007 28113 net.cpp:345] relu3_1 -> conv3_1 (in-place)
I0324 16:40:48.879022 28113 net.cpp:96] Setting up relu3_1
I0324 16:40:48.879034 28113 net.cpp:103] Top shape: 1 256 126 126 (4064256)
I0324 16:40:48.879042 28113 layer_factory.hpp:78] Creating layer conv3_2
I0324 16:40:48.879052 28113 net.cpp:67] Creating Layer conv3_2
I0324 16:40:48.879063 28113 net.cpp:394] conv3_2 <- conv3_1
I0324 16:40:48.881012 28113 net.cpp:356] conv3_2 -> conv3_2
I0324 16:40:48.881058 28113 net.cpp:96] Setting up conv3_2
I0324 16:40:48.883666 28113 net.cpp:103] Top shape: 1 256 126 126 (4064256)
I0324 16:40:48.883744 28113 layer_factory.hpp:78] Creating layer relu3_2
I0324 16:40:48.883760 28113 net.cpp:67] Creating Layer relu3_2
I0324 16:40:48.883771 28113 net.cpp:394] relu3_2 <- conv3_2
I0324 16:40:48.883788 28113 net.cpp:345] relu3_2 -> conv3_2 (in-place)
I0324 16:40:48.883803 28113 net.cpp:96] Setting up relu3_2
I0324 16:40:48.883813 28113 net.cpp:103] Top shape: 1 256 126 126 (4064256)
I0324 16:40:48.883821 28113 layer_factory.hpp:78] Creating layer conv3_3
I0324 16:40:48.883832 28113 net.cpp:67] Creating Layer conv3_3
I0324 16:40:48.883841 28113 net.cpp:394] conv3_3 <- conv3_2
I0324 16:40:48.883854 28113 net.cpp:356] conv3_3 -> conv3_3
I0324 16:40:48.883867 28113 net.cpp:96] Setting up conv3_3
I0324 16:40:48.885355 28113 net.cpp:103] Top shape: 1 256 126 126 (4064256)
I0324 16:40:48.885377 28113 layer_factory.hpp:78] Creating layer relu3_3
I0324 16:40:48.885393 28113 net.cpp:67] Creating Layer relu3_3
I0324 16:40:48.885402 28113 net.cpp:394] relu3_3 <- conv3_3
I0324 16:40:48.885412 28113 net.cpp:345] relu3_3 -> conv3_3 (in-place)
I0324 16:40:48.885424 28113 net.cpp:96] Setting up relu3_3
I0324 16:40:48.885433 28113 net.cpp:103] Top shape: 1 256 126 126 (4064256)
I0324 16:40:48.885440 28113 layer_factory.hpp:78] Creating layer pool3
I0324 16:40:48.885455 28113 net.cpp:67] Creating Layer pool3
I0324 16:40:48.885464 28113 net.cpp:394] pool3 <- conv3_3
I0324 16:40:48.885474 28113 net.cpp:356] pool3 -> pool3
I0324 16:40:48.885485 28113 net.cpp:96] Setting up pool3
I0324 16:40:48.885498 28113 net.cpp:103] Top shape: 1 256 64 64 (1048576)
I0324 16:40:48.885505 28113 layer_factory.hpp:78] Creating layer conv4_1
I0324 16:40:48.885519 28113 net.cpp:67] Creating Layer conv4_1
I0324 16:40:48.885526 28113 net.cpp:394] conv4_1 <- pool3
I0324 16:40:48.885537 28113 net.cpp:356] conv4_1 -> conv4_1
I0324 16:40:48.885548 28113 net.cpp:96] Setting up conv4_1
I0324 16:40:48.889608 28113 net.cpp:103] Top shape: 1 512 64 64 (2097152)
I0324 16:40:48.889695 28113 layer_factory.hpp:78] Creating layer relu4_1
I0324 16:40:48.889714 28113 net.cpp:67] Creating Layer relu4_1
I0324 16:40:48.889724 28113 net.cpp:394] relu4_1 <- conv4_1
I0324 16:40:48.889739 28113 net.cpp:345] relu4_1 -> conv4_1 (in-place)
I0324 16:40:48.889753 28113 net.cpp:96] Setting up relu4_1
I0324 16:40:48.889763 28113 net.cpp:103] Top shape: 1 512 64 64 (2097152)
I0324 16:40:48.889771 28113 layer_factory.hpp:78] Creating layer conv4_2
I0324 16:40:48.889889 28113 net.cpp:67] Creating Layer conv4_2
I0324 16:40:48.889900 28113 net.cpp:394] conv4_2 <- conv4_1
I0324 16:40:48.889912 28113 net.cpp:356] conv4_2 -> conv4_2
I0324 16:40:48.889945 28113 net.cpp:96] Setting up conv4_2
I0324 16:40:48.895552 28113 net.cpp:103] Top shape: 1 512 64 64 (2097152)
I0324 16:40:48.895648 28113 layer_factory.hpp:78] Creating layer relu4_2
I0324 16:40:48.895668 28113 net.cpp:67] Creating Layer relu4_2
I0324 16:40:48.895679 28113 net.cpp:394] relu4_2 <- conv4_2
I0324 16:40:48.896273 28113 net.cpp:345] relu4_2 -> conv4_2 (in-place)
I0324 16:40:48.896353 28113 net.cpp:96] Setting up relu4_2
I0324 16:40:48.896364 28113 net.cpp:103] Top shape: 1 512 64 64 (2097152)
I0324 16:40:48.896374 28113 layer_factory.hpp:78] Creating layer conv4_3
I0324 16:40:48.896389 28113 net.cpp:67] Creating Layer conv4_3
I0324 16:40:48.896396 28113 net.cpp:394] conv4_3 <- conv4_2
I0324 16:40:48.896409 28113 net.cpp:356] conv4_3 -> conv4_3
I0324 16:40:48.896420 28113 net.cpp:96] Setting up conv4_3
I0324 16:40:48.901906 28113 net.cpp:103] Top shape: 1 512 64 64 (2097152)
I0324 16:40:48.901968 28113 layer_factory.hpp:78] Creating layer relu4_3
I0324 16:40:48.901984 28113 net.cpp:67] Creating Layer relu4_3
I0324 16:40:48.901994 28113 net.cpp:394] relu4_3 <- conv4_3
I0324 16:40:48.902006 28113 net.cpp:345] relu4_3 -> conv4_3 (in-place)
I0324 16:40:48.902019 28113 net.cpp:96] Setting up relu4_3
I0324 16:40:48.902029 28113 net.cpp:103] Top shape: 1 512 64 64 (2097152)
I0324 16:40:48.902036 28113 layer_factory.hpp:78] Creating layer pool4
I0324 16:40:48.902051 28113 net.cpp:67] Creating Layer pool4
I0324 16:40:48.902060 28113 net.cpp:394] pool4 <- conv4_3
I0324 16:40:48.902071 28113 net.cpp:356] pool4 -> pool4
I0324 16:40:48.902086 28113 net.cpp:96] Setting up pool4
I0324 16:40:48.902099 28113 net.cpp:103] Top shape: 1 512 64 64 (2097152)
I0324 16:40:48.902107 28113 layer_factory.hpp:78] Creating layer conv5_1
I0324 16:40:48.902123 28113 net.cpp:67] Creating Layer conv5_1
I0324 16:40:48.902134 28113 net.cpp:394] conv5_1 <- pool4
I0324 16:40:48.902145 28113 net.cpp:356] conv5_1 -> conv5_1
I0324 16:40:48.902156 28113 net.cpp:96] Setting up conv5_1
I0324 16:40:48.911919 28113 net.cpp:103] Top shape: 1 512 64 64 (2097152)
I0324 16:40:48.912004 28113 layer_factory.hpp:78] Creating layer relu5_1
I0324 16:40:48.912021 28113 net.cpp:67] Creating Layer relu5_1
I0324 16:40:48.912032 28113 net.cpp:394] relu5_1 <- conv5_1
I0324 16:40:48.912736 28113 net.cpp:345] relu5_1 -> conv5_1 (in-place)
I0324 16:40:48.912818 28113 net.cpp:96] Setting up relu5_1
I0324 16:40:48.912829 28113 net.cpp:103] Top shape: 1 512 64 64 (2097152)
I0324 16:40:48.912838 28113 layer_factory.hpp:78] Creating layer conv5_2
I0324 16:40:48.912868 28113 net.cpp:67] Creating Layer conv5_2
I0324 16:40:48.912878 28113 net.cpp:394] conv5_2 <- conv5_1
I0324 16:40:48.912889 28113 net.cpp:356] conv5_2 -> conv5_2
I0324 16:40:48.912902 28113 net.cpp:96] Setting up conv5_2
I0324 16:40:48.917536 28113 net.cpp:103] Top shape: 1 512 64 64 (2097152)
I0324 16:40:48.917592 28113 layer_factory.hpp:78] Creating layer relu5_2
I0324 16:40:48.917608 28113 net.cpp:67] Creating Layer relu5_2
I0324 16:40:48.917616 28113 net.cpp:394] relu5_2 <- conv5_2
I0324 16:40:48.917628 28113 net.cpp:345] relu5_2 -> conv5_2 (in-place)
I0324 16:40:48.917639 28113 net.cpp:96] Setting up relu5_2
I0324 16:40:48.917649 28113 net.cpp:103] Top shape: 1 512 64 64 (2097152)
I0324 16:40:48.917656 28113 layer_factory.hpp:78] Creating layer conv5_3
I0324 16:40:48.917670 28113 net.cpp:67] Creating Layer conv5_3
I0324 16:40:48.917678 28113 net.cpp:394] conv5_3 <- conv5_2
I0324 16:40:48.917688 28113 net.cpp:356] conv5_3 -> conv5_3
I0324 16:40:48.917700 28113 net.cpp:96] Setting up conv5_3
I0324 16:40:48.924875 28113 net.cpp:103] Top shape: 1 512 64 64 (2097152)
I0324 16:40:48.924958 28113 layer_factory.hpp:78] Creating layer relu5_3
I0324 16:40:48.924978 28113 net.cpp:67] Creating Layer relu5_3
I0324 16:40:48.924988 28113 net.cpp:394] relu5_3 <- conv5_3
I0324 16:40:48.925004 28113 net.cpp:345] relu5_3 -> conv5_3 (in-place)
I0324 16:40:48.925019 28113 net.cpp:96] Setting up relu5_3
I0324 16:40:48.925027 28113 net.cpp:103] Top shape: 1 512 64 64 (2097152)
I0324 16:40:48.925055 28113 layer_factory.hpp:78] Creating layer pool5
I0324 16:40:48.925084 28113 net.cpp:67] Creating Layer pool5
I0324 16:40:48.925092 28113 net.cpp:394] pool5 <- conv5_3
I0324 16:40:48.925107 28113 net.cpp:356] pool5 -> pool5
I0324 16:40:48.925122 28113 net.cpp:96] Setting up pool5
I0324 16:40:48.925133 28113 net.cpp:103] Top shape: 1 512 64 64 (2097152)
I0324 16:40:48.925142 28113 layer_factory.hpp:78] Creating layer pool5a
I0324 16:40:48.925159 28113 net.cpp:67] Creating Layer pool5a
I0324 16:40:48.925168 28113 net.cpp:394] pool5a <- pool5
I0324 16:40:48.925178 28113 net.cpp:356] pool5a -> pool5a
I0324 16:40:48.925187 28113 net.cpp:96] Setting up pool5a
I0324 16:40:48.925196 28113 net.cpp:103] Top shape: 1 512 64 64 (2097152)
I0324 16:40:48.925204 28113 layer_factory.hpp:78] Creating layer fc6
I0324 16:40:48.925220 28113 net.cpp:67] Creating Layer fc6
I0324 16:40:48.925228 28113 net.cpp:394] fc6 <- pool5a
I0324 16:40:48.925240 28113 net.cpp:356] fc6 -> fc6
I0324 16:40:48.925251 28113 net.cpp:96] Setting up fc6
I0324 16:40:48.944242 28113 net.cpp:103] Top shape: 1 1024 64 64 (4194304)
I0324 16:40:48.944331 28113 layer_factory.hpp:78] Creating layer relu6
I0324 16:40:48.944350 28113 net.cpp:67] Creating Layer relu6
I0324 16:40:48.944361 28113 net.cpp:394] relu6 <- fc6
I0324 16:40:48.944376 28113 net.cpp:345] relu6 -> fc6 (in-place)
I0324 16:40:48.944391 28113 net.cpp:96] Setting up relu6
I0324 16:40:48.944401 28113 net.cpp:103] Top shape: 1 1024 64 64 (4194304)
I0324 16:40:48.944408 28113 layer_factory.hpp:78] Creating layer drop6
I0324 16:40:48.944421 28113 net.cpp:67] Creating Layer drop6
I0324 16:40:48.944428 28113 net.cpp:394] drop6 <- fc6
I0324 16:40:48.944442 28113 net.cpp:345] drop6 -> fc6 (in-place)
I0324 16:40:48.944453 28113 net.cpp:96] Setting up drop6
I0324 16:40:48.944463 28113 net.cpp:103] Top shape: 1 1024 64 64 (4194304)
I0324 16:40:48.944470 28113 layer_factory.hpp:78] Creating layer fc7
I0324 16:40:48.944483 28113 net.cpp:67] Creating Layer fc7
I0324 16:40:48.944491 28113 net.cpp:394] fc7 <- fc6
I0324 16:40:48.944504 28113 net.cpp:356] fc7 -> fc7
I0324 16:40:48.944516 28113 net.cpp:96] Setting up fc7
I0324 16:40:48.947146 28113 net.cpp:103] Top shape: 1 1024 64 64 (4194304)
I0324 16:40:48.947177 28113 layer_factory.hpp:78] Creating layer relu7
I0324 16:40:48.947190 28113 net.cpp:67] Creating Layer relu7
I0324 16:40:48.947199 28113 net.cpp:394] relu7 <- fc7
I0324 16:40:48.947212 28113 net.cpp:345] relu7 -> fc7 (in-place)
I0324 16:40:48.947226 28113 net.cpp:96] Setting up relu7
I0324 16:40:48.947234 28113 net.cpp:103] Top shape: 1 1024 64 64 (4194304)
I0324 16:40:48.947243 28113 layer_factory.hpp:78] Creating layer drop7
I0324 16:40:48.947253 28113 net.cpp:67] Creating Layer drop7
I0324 16:40:48.947262 28113 net.cpp:394] drop7 <- fc7
I0324 16:40:48.947271 28113 net.cpp:345] drop7 -> fc7 (in-place)
I0324 16:40:48.947281 28113 net.cpp:96] Setting up drop7
I0324 16:40:48.947289 28113 net.cpp:103] Top shape: 1 1024 64 64 (4194304)
I0324 16:40:48.947298 28113 layer_factory.hpp:78] Creating layer fc8_baxter
I0324 16:40:48.947309 28113 net.cpp:67] Creating Layer fc8_baxter
I0324 16:40:48.947317 28113 net.cpp:394] fc8_baxter <- fc7
I0324 16:40:48.947329 28113 net.cpp:356] fc8_baxter -> fc8_baxter
I0324 16:40:48.947340 28113 net.cpp:96] Setting up fc8_baxter
I0324 16:40:48.947468 28113 net.cpp:103] Top shape: 1 2 64 64 (8192)
I0324 16:40:48.947484 28113 layer_factory.hpp:78] Creating layer upscore
I0324 16:40:48.947496 28113 net.cpp:67] Creating Layer upscore
I0324 16:40:48.947505 28113 net.cpp:394] upscore <- fc8_baxter
I0324 16:40:48.947515 28113 net.cpp:356] upscore -> upscore
I0324 16:40:48.947527 28113 net.cpp:96] Setting up upscore
I0324 16:40:48.947537 28113 net.cpp:103] Top shape: 1 2 500 500 (500000)
I0324 16:40:48.947546 28113 layer_factory.hpp:78] Creating layer loss
I0324 16:40:48.947561 28113 net.cpp:67] Creating Layer loss
I0324 16:40:48.947569 28113 net.cpp:394] loss <- upscore
I0324 16:40:48.947579 28113 net.cpp:394] loss <- label
I0324 16:40:48.947590 28113 net.cpp:356] loss -> loss
I0324 16:40:48.947630 28113 net.cpp:96] Setting up loss
I0324 16:40:48.947660 28113 softmax_loss_layer.cpp:40] Weight_Loss file is not provided. Assign all one to it.
I0324 16:40:48.947671 28113 net.cpp:103] Top shape: 1 1 1 1 (1)
I0324 16:40:48.947679 28113 net.cpp:109]     with loss weight 1
I0324 16:40:48.947717 28113 net.cpp:170] loss needs backward computation.
I0324 16:40:48.947726 28113 net.cpp:170] upscore needs backward computation.
I0324 16:40:48.947734 28113 net.cpp:170] fc8_baxter needs backward computation.
I0324 16:40:48.947742 28113 net.cpp:170] drop7 needs backward computation.
I0324 16:40:48.947749 28113 net.cpp:170] relu7 needs backward computation.
…
