…
I0310 23:26:27.118973 28451 net.cpp:275] The NetState phase (0) differed from the phase (1) specified by a rule in layer data
I0310 23:26:27.119292 28451 net.cpp:39] Initializing net from parameters: 
name: "dl_large_fov_phase_1"
layers {
  top: "data"
  top: "label"
  name: "data"
  type: IMAGE_SEG_DATA
  image_data_param {
    source: "/home/thanhnt/phase_1/data/train_list.txt"
    batch_size: 1
    shuffle: true
    root_folder: "/home/thanhnt/phase_1/data/"
    label_type: PIXEL
  }
  include {
    phase: TRAIN
  }
  transform_param {
    mirror: true
    crop_size: 500
    mean_value: 144.15103
    mean_value: 157.14572
    mean_value: 184.01074
  }
}
layers {
  bottom: "data"
  top: "conv1_1"
  name: "conv1_1"
  type: CONVOLUTION
  blobs_lr: 1
  blobs_lr: 2
  weight_decay: 1
  weight_decay: 0
  convolution_param {
    num_output: 64
    pad: 1
    kernel_size: 3
  }
}
layers {
  bottom: "conv1_1"
  top: "conv1_1"
  name: "relu1_1"
  type: RELU
}
layers {
  bottom: "conv1_1"
  top: "conv1_2"
  name: "conv1_2"
  type: CONVOLUTION
  blobs_lr: 1
  blobs_lr: 2
  weight_decay: 1
  weight_decay: 0
  convolution_param {
    num_output: 64
    pad: 1
    kernel_size: 3
  }
}
layers {
  bottom: "conv1_2"
  top: "conv1_2"
  name: "relu1_2"
  type: RELU
}
layers {
  bottom: "conv1_2"
  top: "pool1"
  name: "pool1"
  type: POOLING
  pooling_param {
    pool: MAX
    kernel_size: 3
    stride: 2
    pad: 1
  }
}
layers {
  bottom: "pool1"
  top: "conv2_1"
  name: "conv2_1"
  type: CONVOLUTION
  blobs_lr: 1
  blobs_lr: 2
  weight_decay: 1
  weight_decay: 0
  convolution_param {
    num_output: 128
    pad: 1
    kernel_size: 3
  }
}
layers {
  bottom: "conv2_1"
  top: "conv2_1"
  name: "relu2_1"
  type: RELU
}
layers {
  bottom: "conv2_1"
  top: "conv2_2"
  name: "conv2_2"
  type: CONVOLUTION
  blobs_lr: 1
  blobs_lr: 2
  weight_decay: 1
  weight_decay: 0
  convolution_param {
    num_output: 128
    pad: 1
    kernel_size: 3
  }
}
layers {
  bottom: "conv2_2"
  top: "conv2_2"
  name: "relu2_2"
  type: RELU
}
layers {
  bottom: "conv2_2"
  top: "pool2"
  name: "pool2"
  type: POOLING
  pooling_param {
    pool: MAX
    kernel_size: 3
    stride: 2
    pad: 1
  }
}
layers {
  bottom: "pool2"
  top: "conv3_1"
  name: "conv3_1"
  type: CONVOLUTION
  blobs_lr: 1
  blobs_lr: 2
  weight_decay: 1
  weight_decay: 0
  convolution_param {
    num_output: 256
    pad: 1
    kernel_size: 3
  }
}
layers {
  bottom: "conv3_1"
  top: "conv3_1"
  name: "relu3_1"
  type: RELU
}
layers {
  bottom: "conv3_1"
  top: "conv3_2"
  name: "conv3_2"
  type: CONVOLUTION
  blobs_lr: 1
  blobs_lr: 2
  weight_decay: 1
  weight_decay: 0
  convolution_param {
    num_output: 256
    pad: 1
    kernel_size: 3
  }
}
layers {
  bottom: "conv3_2"
  top: "conv3_2"
  name: "relu3_2"
  type: RELU
}
layers {
  bottom: "conv3_2"
  top: "conv3_3"
  name: "conv3_3"
  type: CONVOLUTION
  blobs_lr: 1
  blobs_lr: 2
  weight_decay: 1
  weight_decay: 0
  convolution_param {
    num_output: 256
    pad: 1
    kernel_size: 3
  }
}
layers {
  bottom: "conv3_3"
  top: "conv3_3"
  name: "relu3_3"
  type: RELU
}
layers {
  bottom: "conv3_3"
  top: "pool3"
  name: "pool3"
  type: POOLING
  pooling_param {
    pool: MAX
    kernel_size: 3
    stride: 2
    pad: 1
  }
}
layers {
  bottom: "pool3"
  top: "conv4_1"
  name: "conv4_1"
  type: CONVOLUTION
  blobs_lr: 1
  blobs_lr: 2
  weight_decay: 1
  weight_decay: 0
  convolution_param {
    num_output: 512
    pad: 1
    kernel_size: 3
  }
}
layers {
  bottom: "conv4_1"
  top: "conv4_1"
  name: "relu4_1"
  type: RELU
}
layers {
  bottom: "conv4_1"
  top: "conv4_2"
  name: "conv4_2"
  type: CONVOLUTION
  blobs_lr: 1
  blobs_lr: 2
  weight_decay: 1
  weight_decay: 0
  convolution_param {
    num_output: 512
    pad: 1
    kernel_size: 3
  }
}
layers {
  bottom: "conv4_2"
  top: "conv4_2"
  name: "relu4_2"
  type: RELU
}
layers {
  bottom: "conv4_2"
  top: "conv4_3"
  name: "conv4_3"
  type: CONVOLUTION
  blobs_lr: 1
  blobs_lr: 2
  weight_decay: 1
  weight_decay: 0
  convolution_param {
    num_output: 512
    pad: 1
    kernel_size: 3
  }
}
layers {
  bottom: "conv4_3"
  top: "conv4_3"
  name: "relu4_3"
  type: RELU
}
layers {
  bottom: "conv4_3"
  top: "pool4"
  name: "pool4"
  type: POOLING
  pooling_param {
    pool: MAX
    kernel_size: 3
    stride: 1
    pad: 1
  }
}
layers {
  bottom: "pool4"
  top: "conv5_1"
  name: "conv5_1"
  type: CONVOLUTION
  blobs_lr: 1
  blobs_lr: 2
  weight_decay: 1
  weight_decay: 0
  convolution_param {
    num_output: 512
    pad: 2
    kernel_size: 3
    hole: 2
  }
}
layers {
  bottom: "conv5_1"
  top: "conv5_1"
  name: "relu5_1"
  type: RELU
}
layers {
  bottom: "conv5_1"
  top: "conv5_2"
  name: "conv5_2"
  type: CONVOLUTION
  blobs_lr: 1
  blobs_lr: 2
  weight_decay: 1
  weight_decay: 0
  convolution_param {
    num_output: 512
    pad: 2
    kernel_size: 3
    hole: 2
  }
}
layers {
  bottom: "conv5_2"
  top: "conv5_2"
  name: "relu5_2"
  type: RELU
}
layers {
  bottom: "conv5_2"
  top: "conv5_3"
  name: "conv5_3"
  type: CONVOLUTION
  blobs_lr: 1
  blobs_lr: 2
  weight_decay: 1
  weight_decay: 0
  convolution_param {
    num_output: 512
    pad: 2
    kernel_size: 3
    hole: 2
  }
}
layers {
  bottom: "conv5_3"
  top: "conv5_3"
  name: "relu5_3"
  type: RELU
}
layers {
  bottom: "conv5_3"
  top: "pool5"
  name: "pool5"
  type: POOLING
  pooling_param {
    pool: MAX
    kernel_size: 3
    stride: 1
    pad: 1
  }
}
layers {
  bottom: "pool5"
  top: "pool5a"
  name: "pool5a"
  type: POOLING
  pooling_param {
    pool: AVE
    kernel_size: 3
    stride: 1
    pad: 1
  }
}
layers {
  bottom: "pool5a"
  top: "fc6"
  name: "fc6"
  type: CONVOLUTION
  blobs_lr: 1
  blobs_lr: 2
  weight_decay: 1
  weight_decay: 0
  convolution_param {
    num_output: 1024
    pad: 12
    kernel_size: 3
    hole: 12
  }
}
layers {
  bottom: "fc6"
  top: "fc6"
  name: "relu6"
  type: RELU
}
layers {
  bottom: "fc6"
  top: "fc6"
  name: "drop6"
  type: DROPOUT
  dropout_param {
    dropout_ratio: 0.5
  }
}
layers {
  bottom: "fc6"
  top: "fc7"
  name: "fc7"
  type: CONVOLUTION
  blobs_lr: 1
  blobs_lr: 2
  weight_decay: 1
  weight_decay: 0
  convolution_param {
    num_output: 1024
    kernel_size: 1
  }
}
layers {
  bottom: "fc7"
  top: "fc7"
  name: "relu7"
  type: RELU
}
layers {
  bottom: "fc7"
  top: "fc7"
  name: "drop7"
  type: DROPOUT
  dropout_param {
    dropout_ratio: 0.5
  }
}
layers {
  bottom: "fc7"
  top: "fc8_baxter"
  name: "fc8_baxter"
  type: CONVOLUTION
  blobs_lr: 1
  blobs_lr: 2
  weight_decay: 1
  weight_decay: 0
  convolution_param {
    num_output: 2
    kernel_size: 1
    weight_filler {
      type: "gaussian"
      std: 0.01
    }
    bias_filler {
      type: "constant"
      value: 0
    }
  }
}
layers {
  bottom: "fc8_baxter"
  top: "upscore"
  name: "upscore"
  type: INTERP
  interp_param {
    height: 500
    width: 500
  }
}
layers {
  bottom: "upscore"
  bottom: "label"
  top: "loss"
  name: "loss"
  type: SOFTMAX_LOSS
}
state {
  phase: TRAIN
}
I0310 23:26:27.119510 28451 layer_factory.hpp:78] Creating layer data
I0310 23:26:27.119562 28451 net.cpp:67] Creating Layer data
I0310 23:26:27.119581 28451 net.cpp:356] data -> data
I0310 23:26:27.119730 28451 net.cpp:356] data -> label
I0310 23:26:27.119756 28451 net.cpp:356] data -> (automatic)
I0310 23:26:27.119768 28451 net.cpp:96] Setting up data
I0310 23:26:27.119779 28451 image_seg_data_layer.cpp:45] Opening file /home/thanhnt/phase_1/data/train_list.txt
I0310 23:26:27.120882 28451 image_seg_data_layer.cpp:62] Shuffling data
I0310 23:26:27.121479 28451 image_seg_data_layer.cpp:67] A total of 810 images.
I0310 23:26:27.130511 28451 image_seg_data_layer.cpp:113] output data size: 1,3,500,500
I0310 23:26:27.130545 28451 image_seg_data_layer.cpp:117] output label size: 1,1,500,500
I0310 23:26:27.130553 28451 image_seg_data_layer.cpp:121] output data_dim size: 1,1,1,2
I0310 23:26:27.132122 28451 net.cpp:103] Top shape: 1 3 500 500 (750000)
I0310 23:26:27.132140 28451 net.cpp:103] Top shape: 1 1 500 500 (250000)
I0310 23:26:27.132149 28451 net.cpp:103] Top shape: 1 1 1 2 (2)
I0310 23:26:27.132158 28451 layer_factory.hpp:78] Creating layer conv1_1
I0310 23:26:27.132174 28451 net.cpp:67] Creating Layer conv1_1
I0310 23:26:27.132184 28451 net.cpp:394] conv1_1 <- data
I0310 23:26:27.132200 28451 net.cpp:356] conv1_1 -> conv1_1
I0310 23:26:27.132215 28451 net.cpp:96] Setting up conv1_1
I0310 23:26:27.132712 28451 net.cpp:103] Top shape: 1 64 500 500 (16000000)
I0310 23:26:27.132737 28451 layer_factory.hpp:78] Creating layer relu1_1
I0310 23:26:27.132750 28451 net.cpp:67] Creating Layer relu1_1
I0310 23:26:27.132758 28451 net.cpp:394] relu1_1 <- conv1_1
I0310 23:26:27.132769 28451 net.cpp:345] relu1_1 -> conv1_1 (in-place)
I0310 23:26:27.132781 28451 net.cpp:96] Setting up relu1_1
I0310 23:26:27.132796 28451 net.cpp:103] Top shape: 1 64 500 500 (16000000)
I0310 23:26:27.132803 28451 layer_factory.hpp:78] Creating layer conv1_2
I0310 23:26:27.132813 28451 net.cpp:67] Creating Layer conv1_2
I0310 23:26:27.132824 28451 net.cpp:394] conv1_2 <- conv1_1
I0310 23:26:27.132835 28451 net.cpp:356] conv1_2 -> conv1_2
I0310 23:26:27.132848 28451 net.cpp:96] Setting up conv1_2
I0310 23:26:27.133710 28451 net.cpp:103] Top shape: 1 64 500 500 (16000000)
I0310 23:26:27.133733 28451 layer_factory.hpp:78] Creating layer relu1_2
I0310 23:26:27.133747 28451 net.cpp:67] Creating Layer relu1_2
I0310 23:26:27.133756 28451 net.cpp:394] relu1_2 <- conv1_2
I0310 23:26:27.133770 28451 net.cpp:345] relu1_2 -> conv1_2 (in-place)
I0310 23:26:27.133781 28451 net.cpp:96] Setting up relu1_2
I0310 23:26:27.133790 28451 net.cpp:103] Top shape: 1 64 500 500 (16000000)
I0310 23:26:27.133797 28451 layer_factory.hpp:78] Creating layer pool1
I0310 23:26:27.133808 28451 net.cpp:67] Creating Layer pool1
I0310 23:26:27.133816 28451 net.cpp:394] pool1 <- conv1_2
I0310 23:26:27.133826 28451 net.cpp:356] pool1 -> pool1
I0310 23:26:27.133836 28451 net.cpp:96] Setting up pool1
I0310 23:26:27.133858 28451 net.cpp:103] Top shape: 1 64 251 251 (4032064)
I0310 23:26:27.133867 28451 layer_factory.hpp:78] Creating layer conv2_1
I0310 23:26:27.133883 28451 net.cpp:67] Creating Layer conv2_1
I0310 23:26:27.133893 28451 net.cpp:394] conv2_1 <- pool1
I0310 23:26:27.133903 28451 net.cpp:356] conv2_1 -> conv2_1
I0310 23:26:27.133914 28451 net.cpp:96] Setting up conv2_1
I0310 23:26:27.134352 28451 net.cpp:103] Top shape: 1 128 251 251 (8064128)
I0310 23:26:27.134374 28451 layer_factory.hpp:78] Creating layer relu2_1
I0310 23:26:27.134387 28451 net.cpp:67] Creating Layer relu2_1
I0310 23:26:27.134394 28451 net.cpp:394] relu2_1 <- conv2_1
I0310 23:26:27.134409 28451 net.cpp:345] relu2_1 -> conv2_1 (in-place)
I0310 23:26:27.134420 28451 net.cpp:96] Setting up relu2_1
I0310 23:26:27.134429 28451 net.cpp:103] Top shape: 1 128 251 251 (8064128)
I0310 23:26:27.134438 28451 layer_factory.hpp:78] Creating layer conv2_2
I0310 23:26:27.134449 28451 net.cpp:67] Creating Layer conv2_2
I0310 23:26:27.134456 28451 net.cpp:394] conv2_2 <- conv2_1
I0310 23:26:27.134469 28451 net.cpp:356] conv2_2 -> conv2_2
I0310 23:26:27.134480 28451 net.cpp:96] Setting up conv2_2
I0310 23:26:27.135140 28451 net.cpp:103] Top shape: 1 128 251 251 (8064128)
I0310 23:26:27.135160 28451 layer_factory.hpp:78] Creating layer relu2_2
I0310 23:26:27.135170 28451 net.cpp:67] Creating Layer relu2_2
I0310 23:26:27.135179 28451 net.cpp:394] relu2_2 <- conv2_2
I0310 23:26:27.135193 28451 net.cpp:345] relu2_2 -> conv2_2 (in-place)
I0310 23:26:27.135205 28451 net.cpp:96] Setting up relu2_2
I0310 23:26:27.135213 28451 net.cpp:103] Top shape: 1 128 251 251 (8064128)
I0310 23:26:27.135221 28451 layer_factory.hpp:78] Creating layer pool2
I0310 23:26:27.135244 28451 net.cpp:67] Creating Layer pool2
I0310 23:26:27.135265 28451 net.cpp:394] pool2 <- conv2_2
I0310 23:26:27.135277 28451 net.cpp:356] pool2 -> pool2
I0310 23:26:27.135288 28451 net.cpp:96] Setting up pool2
I0310 23:26:27.135298 28451 net.cpp:103] Top shape: 1 128 126 126 (2032128)
I0310 23:26:27.135306 28451 layer_factory.hpp:78] Creating layer conv3_1
I0310 23:26:27.135316 28451 net.cpp:67] Creating Layer conv3_1
I0310 23:26:27.135324 28451 net.cpp:394] conv3_1 <- pool2
I0310 23:26:27.135337 28451 net.cpp:356] conv3_1 -> conv3_1
I0310 23:26:27.135349 28451 net.cpp:96] Setting up conv3_1
I0310 23:26:27.136147 28451 net.cpp:103] Top shape: 1 256 126 126 (4064256)
I0310 23:26:27.136169 28451 layer_factory.hpp:78] Creating layer relu3_1
I0310 23:26:27.136179 28451 net.cpp:67] Creating Layer relu3_1
I0310 23:26:27.136188 28451 net.cpp:394] relu3_1 <- conv3_1
I0310 23:26:27.136203 28451 net.cpp:345] relu3_1 -> conv3_1 (in-place)
I0310 23:26:27.136214 28451 net.cpp:96] Setting up relu3_1
I0310 23:26:27.136221 28451 net.cpp:103] Top shape: 1 256 126 126 (4064256)
I0310 23:26:27.136229 28451 layer_factory.hpp:78] Creating layer conv3_2
I0310 23:26:27.136240 28451 net.cpp:67] Creating Layer conv3_2
I0310 23:26:27.136247 28451 net.cpp:394] conv3_2 <- conv3_1
I0310 23:26:27.136257 28451 net.cpp:356] conv3_2 -> conv3_2
I0310 23:26:27.136268 28451 net.cpp:96] Setting up conv3_2
I0310 23:26:27.138044 28451 net.cpp:103] Top shape: 1 256 126 126 (4064256)
I0310 23:26:27.138064 28451 layer_factory.hpp:78] Creating layer relu3_2
I0310 23:26:27.138078 28451 net.cpp:67] Creating Layer relu3_2
I0310 23:26:27.138087 28451 net.cpp:394] relu3_2 <- conv3_2
I0310 23:26:27.138098 28451 net.cpp:345] relu3_2 -> conv3_2 (in-place)
I0310 23:26:27.138108 28451 net.cpp:96] Setting up relu3_2
I0310 23:26:27.138115 28451 net.cpp:103] Top shape: 1 256 126 126 (4064256)
I0310 23:26:27.138123 28451 layer_factory.hpp:78] Creating layer conv3_3
I0310 23:26:27.138135 28451 net.cpp:67] Creating Layer conv3_3
I0310 23:26:27.138144 28451 net.cpp:394] conv3_3 <- conv3_2
I0310 23:26:27.138154 28451 net.cpp:356] conv3_3 -> conv3_3
I0310 23:26:27.138165 28451 net.cpp:96] Setting up conv3_3
I0310 23:26:27.139935 28451 net.cpp:103] Top shape: 1 256 126 126 (4064256)
I0310 23:26:27.139957 28451 layer_factory.hpp:78] Creating layer relu3_3
I0310 23:26:27.139971 28451 net.cpp:67] Creating Layer relu3_3
I0310 23:26:27.139979 28451 net.cpp:394] relu3_3 <- conv3_3
I0310 23:26:27.139992 28451 net.cpp:345] relu3_3 -> conv3_3 (in-place)
I0310 23:26:27.140003 28451 net.cpp:96] Setting up relu3_3
I0310 23:26:27.140012 28451 net.cpp:103] Top shape: 1 256 126 126 (4064256)
I0310 23:26:27.140019 28451 layer_factory.hpp:78] Creating layer pool3
I0310 23:26:27.140029 28451 net.cpp:67] Creating Layer pool3
I0310 23:26:27.140038 28451 net.cpp:394] pool3 <- conv3_3
I0310 23:26:27.140048 28451 net.cpp:356] pool3 -> pool3
I0310 23:26:27.140060 28451 net.cpp:96] Setting up pool3
I0310 23:26:27.140070 28451 net.cpp:103] Top shape: 1 256 64 64 (1048576)
I0310 23:26:27.140079 28451 layer_factory.hpp:78] Creating layer conv4_1
I0310 23:26:27.140089 28451 net.cpp:67] Creating Layer conv4_1
I0310 23:26:27.140096 28451 net.cpp:394] conv4_1 <- pool3
I0310 23:26:27.140106 28451 net.cpp:356] conv4_1 -> conv4_1
I0310 23:26:27.140117 28451 net.cpp:96] Setting up conv4_1
I0310 23:26:27.142618 28451 net.cpp:103] Top shape: 1 512 64 64 (2097152)
I0310 23:26:27.142649 28451 layer_factory.hpp:78] Creating layer relu4_1
I0310 23:26:27.142660 28451 net.cpp:67] Creating Layer relu4_1
I0310 23:26:27.142669 28451 net.cpp:394] relu4_1 <- conv4_1
I0310 23:26:27.142680 28451 net.cpp:345] relu4_1 -> conv4_1 (in-place)
I0310 23:26:27.142691 28451 net.cpp:96] Setting up relu4_1
I0310 23:26:27.142699 28451 net.cpp:103] Top shape: 1 512 64 64 (2097152)
I0310 23:26:27.142707 28451 layer_factory.hpp:78] Creating layer conv4_2
I0310 23:26:27.142720 28451 net.cpp:67] Creating Layer conv4_2
I0310 23:26:27.142729 28451 net.cpp:394] conv4_2 <- conv4_1
I0310 23:26:27.142753 28451 net.cpp:356] conv4_2 -> conv4_2
I0310 23:26:27.142765 28451 net.cpp:96] Setting up conv4_2
I0310 23:26:27.147541 28451 net.cpp:103] Top shape: 1 512 64 64 (2097152)
I0310 23:26:27.147631 28451 layer_factory.hpp:78] Creating layer relu4_2
I0310 23:26:27.147646 28451 net.cpp:67] Creating Layer relu4_2
I0310 23:26:27.147656 28451 net.cpp:394] relu4_2 <- conv4_2
I0310 23:26:27.147671 28451 net.cpp:345] relu4_2 -> conv4_2 (in-place)
I0310 23:26:27.147685 28451 net.cpp:96] Setting up relu4_2
I0310 23:26:27.147693 28451 net.cpp:103] Top shape: 1 512 64 64 (2097152)
I0310 23:26:27.147701 28451 layer_factory.hpp:78] Creating layer conv4_3
I0310 23:26:27.147713 28451 net.cpp:67] Creating Layer conv4_3
I0310 23:26:27.147722 28451 net.cpp:394] conv4_3 <- conv4_2
I0310 23:26:27.147732 28451 net.cpp:356] conv4_3 -> conv4_3
I0310 23:26:27.147742 28451 net.cpp:96] Setting up conv4_3
I0310 23:26:27.151980 28451 net.cpp:103] Top shape: 1 512 64 64 (2097152)
I0310 23:26:27.152031 28451 layer_factory.hpp:78] Creating layer relu4_3
I0310 23:26:27.152045 28451 net.cpp:67] Creating Layer relu4_3
I0310 23:26:27.152055 28451 net.cpp:394] relu4_3 <- conv4_3
I0310 23:26:27.152070 28451 net.cpp:345] relu4_3 -> conv4_3 (in-place)
I0310 23:26:27.152083 28451 net.cpp:96] Setting up relu4_3
I0310 23:26:27.152092 28451 net.cpp:103] Top shape: 1 512 64 64 (2097152)
I0310 23:26:27.152101 28451 layer_factory.hpp:78] Creating layer pool4
I0310 23:26:27.152112 28451 net.cpp:67] Creating Layer pool4
I0310 23:26:27.152119 28451 net.cpp:394] pool4 <- conv4_3
I0310 23:26:27.152129 28451 net.cpp:356] pool4 -> pool4
I0310 23:26:27.152144 28451 net.cpp:96] Setting up pool4
I0310 23:26:27.152156 28451 net.cpp:103] Top shape: 1 512 64 64 (2097152)
I0310 23:26:27.152165 28451 layer_factory.hpp:78] Creating layer conv5_1
I0310 23:26:27.152176 28451 net.cpp:67] Creating Layer conv5_1
I0310 23:26:27.152184 28451 net.cpp:394] conv5_1 <- pool4
I0310 23:26:27.152195 28451 net.cpp:356] conv5_1 -> conv5_1
I0310 23:26:27.152206 28451 net.cpp:96] Setting up conv5_1
I0310 23:26:27.156998 28451 net.cpp:103] Top shape: 1 512 64 64 (2097152)
I0310 23:26:27.157074 28451 layer_factory.hpp:78] Creating layer relu5_1
I0310 23:26:27.157089 28451 net.cpp:67] Creating Layer relu5_1
I0310 23:26:27.157099 28451 net.cpp:394] relu5_1 <- conv5_1
I0310 23:26:27.157115 28451 net.cpp:345] relu5_1 -> conv5_1 (in-place)
I0310 23:26:27.157130 28451 net.cpp:96] Setting up relu5_1
I0310 23:26:27.157138 28451 net.cpp:103] Top shape: 1 512 64 64 (2097152)
I0310 23:26:27.157146 28451 layer_factory.hpp:78] Creating layer conv5_2
I0310 23:26:27.157158 28451 net.cpp:67] Creating Layer conv5_2
I0310 23:26:27.157166 28451 net.cpp:394] conv5_2 <- conv5_1
I0310 23:26:27.157177 28451 net.cpp:356] conv5_2 -> conv5_2
I0310 23:26:27.157188 28451 net.cpp:96] Setting up conv5_2
I0310 23:26:27.161617 28451 net.cpp:103] Top shape: 1 512 64 64 (2097152)
I0310 23:26:27.161684 28451 layer_factory.hpp:78] Creating layer relu5_2
I0310 23:26:27.161700 28451 net.cpp:67] Creating Layer relu5_2
I0310 23:26:27.161710 28451 net.cpp:394] relu5_2 <- conv5_2
I0310 23:26:27.161725 28451 net.cpp:345] relu5_2 -> conv5_2 (in-place)
I0310 23:26:27.161738 28451 net.cpp:96] Setting up relu5_2
I0310 23:26:27.161747 28451 net.cpp:103] Top shape: 1 512 64 64 (2097152)
I0310 23:26:27.161754 28451 layer_factory.hpp:78] Creating layer conv5_3
I0310 23:26:27.161766 28451 net.cpp:67] Creating Layer conv5_3
I0310 23:26:27.161773 28451 net.cpp:394] conv5_3 <- conv5_2
I0310 23:26:27.161784 28451 net.cpp:356] conv5_3 -> conv5_3
I0310 23:26:27.161795 28451 net.cpp:96] Setting up conv5_3
I0310 23:26:27.166384 28451 net.cpp:103] Top shape: 1 512 64 64 (2097152)
I0310 23:26:27.166452 28451 layer_factory.hpp:78] Creating layer relu5_3
I0310 23:26:27.166465 28451 net.cpp:67] Creating Layer relu5_3
I0310 23:26:27.166476 28451 net.cpp:394] relu5_3 <- conv5_3
I0310 23:26:27.166487 28451 net.cpp:345] relu5_3 -> conv5_3 (in-place)
I0310 23:26:27.166499 28451 net.cpp:96] Setting up relu5_3
I0310 23:26:27.166508 28451 net.cpp:103] Top shape: 1 512 64 64 (2097152)
I0310 23:26:27.166535 28451 layer_factory.hpp:78] Creating layer pool5
I0310 23:26:27.166563 28451 net.cpp:67] Creating Layer pool5
I0310 23:26:27.166573 28451 net.cpp:394] pool5 <- conv5_3
I0310 23:26:27.166584 28451 net.cpp:356] pool5 -> pool5
I0310 23:26:27.166595 28451 net.cpp:96] Setting up pool5
I0310 23:26:27.166606 28451 net.cpp:103] Top shape: 1 512 64 64 (2097152)
I0310 23:26:27.166615 28451 layer_factory.hpp:78] Creating layer pool5a
I0310 23:26:27.166631 28451 net.cpp:67] Creating Layer pool5a
I0310 23:26:27.166640 28451 net.cpp:394] pool5a <- pool5
I0310 23:26:27.166649 28451 net.cpp:356] pool5a -> pool5a
I0310 23:26:27.166661 28451 net.cpp:96] Setting up pool5a
I0310 23:26:27.166669 28451 net.cpp:103] Top shape: 1 512 64 64 (2097152)
I0310 23:26:27.166677 28451 layer_factory.hpp:78] Creating layer fc6
I0310 23:26:27.166690 28451 net.cpp:67] Creating Layer fc6
I0310 23:26:27.166699 28451 net.cpp:394] fc6 <- pool5a
I0310 23:26:27.166712 28451 net.cpp:356] fc6 -> fc6
I0310 23:26:27.166723 28451 net.cpp:96] Setting up fc6
I0310 23:26:27.175771 28451 net.cpp:103] Top shape: 1 1024 64 64 (4194304)
I0310 23:26:27.175856 28451 layer_factory.hpp:78] Creating layer relu6
I0310 23:26:27.175871 28451 net.cpp:67] Creating Layer relu6
I0310 23:26:27.175882 28451 net.cpp:394] relu6 <- fc6
I0310 23:26:27.175895 28451 net.cpp:345] relu6 -> fc6 (in-place)
I0310 23:26:27.175907 28451 net.cpp:96] Setting up relu6
I0310 23:26:27.175916 28451 net.cpp:103] Top shape: 1 1024 64 64 (4194304)
I0310 23:26:27.175925 28451 layer_factory.hpp:78] Creating layer drop6
I0310 23:26:27.175937 28451 net.cpp:67] Creating Layer drop6
I0310 23:26:27.175946 28451 net.cpp:394] drop6 <- fc6
I0310 23:26:27.175956 28451 net.cpp:345] drop6 -> fc6 (in-place)
I0310 23:26:27.175966 28451 net.cpp:96] Setting up drop6
I0310 23:26:27.175976 28451 net.cpp:103] Top shape: 1 1024 64 64 (4194304)
I0310 23:26:27.175983 28451 layer_factory.hpp:78] Creating layer fc7
I0310 23:26:27.175994 28451 net.cpp:67] Creating Layer fc7
I0310 23:26:27.176002 28451 net.cpp:394] fc7 <- fc6
I0310 23:26:27.176012 28451 net.cpp:356] fc7 -> fc7
I0310 23:26:27.176023 28451 net.cpp:96] Setting up fc7
I0310 23:26:27.178215 28451 net.cpp:103] Top shape: 1 1024 64 64 (4194304)
I0310 23:26:27.178242 28451 layer_factory.hpp:78] Creating layer relu7
I0310 23:26:27.178256 28451 net.cpp:67] Creating Layer relu7
I0310 23:26:27.178263 28451 net.cpp:394] relu7 <- fc7
I0310 23:26:27.178273 28451 net.cpp:345] relu7 -> fc7 (in-place)
I0310 23:26:27.178284 28451 net.cpp:96] Setting up relu7
I0310 23:26:27.178292 28451 net.cpp:103] Top shape: 1 1024 64 64 (4194304)
I0310 23:26:27.178300 28451 layer_factory.hpp:78] Creating layer drop7
I0310 23:26:27.178313 28451 net.cpp:67] Creating Layer drop7
I0310 23:26:27.178320 28451 net.cpp:394] drop7 <- fc7
I0310 23:26:27.178329 28451 net.cpp:345] drop7 -> fc7 (in-place)
I0310 23:26:27.178339 28451 net.cpp:96] Setting up drop7
I0310 23:26:27.178347 28451 net.cpp:103] Top shape: 1 1024 64 64 (4194304)
I0310 23:26:27.178355 28451 layer_factory.hpp:78] Creating layer fc8_baxter
I0310 23:26:27.178366 28451 net.cpp:67] Creating Layer fc8_baxter
I0310 23:26:27.178374 28451 net.cpp:394] fc8_baxter <- fc7
I0310 23:26:27.178387 28451 net.cpp:356] fc8_baxter -> fc8_baxter
I0310 23:26:27.178400 28451 net.cpp:96] Setting up fc8_baxter
I0310 23:26:27.178524 28451 net.cpp:103] Top shape: 1 2 64 64 (8192)
I0310 23:26:27.178537 28451 layer_factory.hpp:78] Creating layer upscore
I0310 23:26:27.178550 28451 net.cpp:67] Creating Layer upscore
I0310 23:26:27.178557 28451 net.cpp:394] upscore <- fc8_baxter
I0310 23:26:27.178568 28451 net.cpp:356] upscore -> upscore
I0310 23:26:27.178580 28451 net.cpp:96] Setting up upscore
I0310 23:26:27.178588 28451 net.cpp:103] Top shape: 1 2 500 500 (500000)
I0310 23:26:27.178596 28451 layer_factory.hpp:78] Creating layer loss
I0310 23:26:27.178611 28451 net.cpp:67] Creating Layer loss
I0310 23:26:27.178619 28451 net.cpp:394] loss <- upscore
I0310 23:26:27.178628 28451 net.cpp:394] loss <- label
I0310 23:26:27.178638 28451 net.cpp:356] loss -> loss
I0310 23:26:27.178676 28451 net.cpp:96] Setting up loss
I0310 23:26:27.178704 28451 softmax_loss_layer.cpp:40] Weight_Loss file is not provided. Assign all one to it.
I0310 23:26:27.178714 28451 net.cpp:103] Top shape: 1 1 1 1 (1)
I0310 23:26:27.178722 28451 net.cpp:109]     with loss weight 1
I0310 23:26:27.178757 28451 net.cpp:170] loss needs backward computation.
I0310 23:26:27.178766 28451 net.cpp:170] upscore needs backward computation.
I0310 23:26:27.178774 28451 net.cpp:170] fc8_baxter needs backward computation.
I0310 23:26:27.178781 28451 net.cpp:170] drop7 needs backward computation.
I0310 23:26:27.178788 28451 net.cpp:170] relu7 needs backward computation.
…
