…
I1021 05:29:12.523416 15738 net.cpp:275] The NetState phase (0) differed from the phase (1) specified by a rule in layer data
I1021 05:29:12.523727 15738 net.cpp:39] Initializing net from parameters: 
name: "melanoma_tutorial"
layers {
  top: "data"
  top: "label"
  name: "data"
  type: IMAGE_SEG_DATA
  image_data_param {
    source: "/home/thanhnt/melanoma_tutorial/data/txt/train_list.txt"
    batch_size: 1
    shuffle: true
    root_folder: "/home/thanhnt/phase_1/data/"
    label_type: PIXEL
  }
  include {
    phase: TRAIN
  }
  transform_param {
    mirror: true
    crop_size: 500
    mean_value: 144.15103
    mean_value: 157.14572
    mean_value: 184.01074
  }
}
layers {
  bottom: "data"
  top: "conv1_1"
  name: "conv1_1"
  type: CONVOLUTION
  blobs_lr: 0
  blobs_lr: 0
  weight_decay: 0
  weight_decay: 0
  convolution_param {
    num_output: 64
    pad: 1
    kernel_size: 3
  }
}
layers {
  bottom: "conv1_1"
  top: "conv1_1"
  name: "relu1_1"
  type: RELU
}
layers {
  bottom: "conv1_1"
  top: "conv1_2"
  name: "conv1_2"
  type: CONVOLUTION
  blobs_lr: 0
  blobs_lr: 0
  weight_decay: 0
  weight_decay: 0
  convolution_param {
    num_output: 64
    pad: 1
    kernel_size: 3
  }
}
layers {
  bottom: "conv1_2"
  top: "conv1_2"
  name: "relu1_2"
  type: RELU
}
layers {
  bottom: "conv1_2"
  top: "pool1"
  name: "pool1"
  type: POOLING
  pooling_param {
    pool: MAX
    kernel_size: 3
    stride: 2
    pad: 1
  }
}
layers {
  bottom: "pool1"
  top: "conv2_1"
  name: "conv2_1"
  type: CONVOLUTION
  blobs_lr: 0
  blobs_lr: 0
  weight_decay: 0
  weight_decay: 0
  convolution_param {
    num_output: 128
    pad: 1
    kernel_size: 3
  }
}
layers {
  bottom: "conv2_1"
  top: "conv2_1"
  name: "relu2_1"
  type: RELU
}
layers {
  bottom: "conv2_1"
  top: "conv2_2"
  name: "conv2_2"
  type: CONVOLUTION
  blobs_lr: 0
  blobs_lr: 0
  weight_decay: 0
  weight_decay: 0
  convolution_param {
    num_output: 128
    pad: 1
    kernel_size: 3
  }
}
layers {
  bottom: "conv2_2"
  top: "conv2_2"
  name: "relu2_2"
  type: RELU
}
layers {
  bottom: "conv2_2"
  top: "pool2"
  name: "pool2"
  type: POOLING
  pooling_param {
    pool: MAX
    kernel_size: 3
    stride: 2
    pad: 1
  }
}
layers {
  bottom: "pool2"
  top: "conv3_1"
  name: "conv3_1"
  type: CONVOLUTION
  blobs_lr: 0
  blobs_lr: 0
  weight_decay: 0
  weight_decay: 0
  convolution_param {
    num_output: 256
    pad: 1
    kernel_size: 3
  }
}
layers {
  bottom: "conv3_1"
  top: "conv3_1"
  name: "relu3_1"
  type: RELU
}
layers {
  bottom: "conv3_1"
  top: "conv3_2"
  name: "conv3_2"
  type: CONVOLUTION
  blobs_lr: 0
  blobs_lr: 0
  weight_decay: 0
  weight_decay: 0
  convolution_param {
    num_output: 256
    pad: 1
    kernel_size: 3
  }
}
layers {
  bottom: "conv3_2"
  top: "conv3_2"
  name: "relu3_2"
  type: RELU
}
layers {
  bottom: "conv3_2"
  top: "conv3_3"
  name: "conv3_3"
  type: CONVOLUTION
  blobs_lr: 0
  blobs_lr: 0
  weight_decay: 0
  weight_decay: 0
  convolution_param {
    num_output: 256
    pad: 1
    kernel_size: 3
  }
}
layers {
  bottom: "conv3_3"
  top: "conv3_3"
  name: "relu3_3"
  type: RELU
}
layers {
  bottom: "conv3_3"
  top: "pool3"
  name: "pool3"
  type: POOLING
  pooling_param {
    pool: MAX
    kernel_size: 3
    stride: 2
    pad: 1
  }
}
layers {
  bottom: "pool3"
  top: "conv4_1"
  name: "conv4_1"
  type: CONVOLUTION
  blobs_lr: 0
  blobs_lr: 0
  weight_decay: 0
  weight_decay: 0
  convolution_param {
    num_output: 512
    pad: 1
    kernel_size: 3
  }
}
layers {
  bottom: "conv4_1"
  top: "conv4_1"
  name: "relu4_1"
  type: RELU
}
layers {
  bottom: "conv4_1"
  top: "conv4_2"
  name: "conv4_2"
  type: CONVOLUTION
  blobs_lr: 0
  blobs_lr: 0
  weight_decay: 0
  weight_decay: 0
  convolution_param {
    num_output: 512
    pad: 1
    kernel_size: 3
  }
}
layers {
  bottom: "conv4_2"
  top: "conv4_2"
  name: "relu4_2"
  type: RELU
}
layers {
  bottom: "conv4_2"
  top: "conv4_3"
  name: "conv4_3"
  type: CONVOLUTION
  blobs_lr: 0
  blobs_lr: 0
  weight_decay: 0
  weight_decay: 0
  convolution_param {
    num_output: 512
    pad: 1
    kernel_size: 3
  }
}
layers {
  bottom: "conv4_3"
  top: "conv4_3"
  name: "relu4_3"
  type: RELU
}
layers {
  bottom: "conv4_3"
  top: "pool4"
  name: "pool4"
  type: POOLING
  pooling_param {
    pool: MAX
    kernel_size: 3
    stride: 1
    pad: 1
  }
}
layers {
  bottom: "pool4"
  top: "conv5_1"
  name: "conv5_1"
  type: CONVOLUTION
  blobs_lr: 1
  blobs_lr: 2
  weight_decay: 1
  weight_decay: 0
  convolution_param {
    num_output: 512
    pad: 2
    kernel_size: 3
    hole: 2
  }
}
layers {
  bottom: "conv5_1"
  top: "conv5_1"
  name: "relu5_1"
  type: RELU
}
layers {
  bottom: "conv5_1"
  top: "conv5_2"
  name: "conv5_2"
  type: CONVOLUTION
  blobs_lr: 1
  blobs_lr: 2
  weight_decay: 1
  weight_decay: 0
  convolution_param {
    num_output: 512
    pad: 2
    kernel_size: 3
    hole: 2
  }
}
layers {
  bottom: "conv5_2"
  top: "conv5_2"
  name: "relu5_2"
  type: RELU
}
layers {
  bottom: "conv5_2"
  top: "conv5_3"
  name: "conv5_3"
  type: CONVOLUTION
  blobs_lr: 1
  blobs_lr: 2
  weight_decay: 1
  weight_decay: 0
  convolution_param {
    num_output: 512
    pad: 2
    kernel_size: 3
    hole: 2
  }
}
layers {
  bottom: "conv5_3"
  top: "conv5_3"
  name: "relu5_3"
  type: RELU
}
layers {
  bottom: "conv5_3"
  top: "pool5"
  name: "pool5"
  type: POOLING
  pooling_param {
    pool: MAX
    kernel_size: 3
    stride: 1
    pad: 1
  }
}
layers {
  bottom: "pool5"
  top: "pool5a"
  name: "pool5a"
  type: POOLING
  pooling_param {
    pool: AVE
    kernel_size: 3
    stride: 1
    pad: 1
  }
}
layers {
  bottom: "pool5a"
  top: "fc6"
  name: "fc6"
  type: CONVOLUTION
  blobs_lr: 1
  blobs_lr: 2
  weight_decay: 1
  weight_decay: 0
  convolution_param {
    num_output: 1024
    pad: 12
    kernel_size: 3
    hole: 12
  }
}
layers {
  bottom: "fc6"
  top: "fc6"
  name: "relu6"
  type: RELU
}
layers {
  bottom: "fc6"
  top: "fc6"
  name: "drop6"
  type: DROPOUT
  dropout_param {
    dropout_ratio: 0.5
  }
}
layers {
  bottom: "fc6"
  top: "fc7"
  name: "fc7"
  type: CONVOLUTION
  blobs_lr: 1
  blobs_lr: 2
  weight_decay: 1
  weight_decay: 0
  convolution_param {
    num_output: 1024
    kernel_size: 1
  }
}
layers {
  bottom: "fc7"
  top: "fc7"
  name: "relu7"
  type: RELU
}
layers {
  bottom: "fc7"
  top: "fc7"
  name: "drop7"
  type: DROPOUT
  dropout_param {
    dropout_ratio: 0.5
  }
}
layers {
  bottom: "fc7"
  top: "fc8_baxter"
  name: "fc8_baxter"
  type: CONVOLUTION
  blobs_lr: 1
  blobs_lr: 2
  weight_decay: 1
  weight_decay: 0
  convolution_param {
    num_output: 2
    kernel_size: 1
    weight_filler {
      type: "gaussian"
      std: 0.01
    }
    bias_filler {
      type: "constant"
      value: 0
    }
  }
}
layers {
  bottom: "fc8_baxter"
  top: "upscore"
  name: "upscore"
  type: INTERP
  interp_param {
    height: 500
    width: 500
  }
}
layers {
  bottom: "upscore"
  bottom: "label"
  top: "loss"
  name: "loss"
  type: SOFTMAX_LOSS
}
state {
  phase: TRAIN
}
I1021 05:29:12.523942 15738 layer_factory.hpp:78] Creating layer data
I1021 05:29:12.523984 15738 net.cpp:67] Creating Layer data
I1021 05:29:12.524000 15738 net.cpp:356] data -> data
I1021 05:29:12.524039 15738 net.cpp:356] data -> label
I1021 05:29:12.524060 15738 net.cpp:356] data -> (automatic)
I1021 05:29:12.524073 15738 net.cpp:96] Setting up data
I1021 05:29:12.524085 15738 image_seg_data_layer.cpp:45] Opening file /home/thanhnt/melanoma_tutorial/data/txt/train_list.txt
I1021 05:29:12.525187 15738 image_seg_data_layer.cpp:62] Shuffling data
I1021 05:29:12.525789 15738 image_seg_data_layer.cpp:67] A total of 810 images.
I1021 05:29:12.631361 15738 image_seg_data_layer.cpp:113] output data size: 1,3,500,500
I1021 05:29:12.631439 15738 image_seg_data_layer.cpp:117] output label size: 1,1,500,500
I1021 05:29:12.631449 15738 image_seg_data_layer.cpp:121] output data_dim size: 1,1,1,2
I1021 05:29:12.633468 15738 net.cpp:103] Top shape: 1 3 500 500 (750000)
I1021 05:29:12.633491 15738 net.cpp:103] Top shape: 1 1 500 500 (250000)
I1021 05:29:12.633502 15738 net.cpp:103] Top shape: 1 1 1 2 (2)
I1021 05:29:12.633512 15738 layer_factory.hpp:78] Creating layer conv1_1
I1021 05:29:12.633539 15738 net.cpp:67] Creating Layer conv1_1
I1021 05:29:12.633553 15738 net.cpp:394] conv1_1 <- data
I1021 05:29:12.633585 15738 net.cpp:356] conv1_1 -> conv1_1
I1021 05:29:12.633605 15738 net.cpp:96] Setting up conv1_1
I1021 05:29:12.634282 15738 net.cpp:103] Top shape: 1 64 500 500 (16000000)
I1021 05:29:12.634315 15738 layer_factory.hpp:78] Creating layer relu1_1
I1021 05:29:12.634330 15738 net.cpp:67] Creating Layer relu1_1
I1021 05:29:12.634340 15738 net.cpp:394] relu1_1 <- conv1_1
I1021 05:29:12.634351 15738 net.cpp:345] relu1_1 -> conv1_1 (in-place)
I1021 05:29:12.634369 15738 net.cpp:96] Setting up relu1_1
I1021 05:29:12.634387 15738 net.cpp:103] Top shape: 1 64 500 500 (16000000)
I1021 05:29:12.634395 15738 layer_factory.hpp:78] Creating layer conv1_2
I1021 05:29:12.634407 15738 net.cpp:67] Creating Layer conv1_2
I1021 05:29:12.634415 15738 net.cpp:394] conv1_2 <- conv1_1
I1021 05:29:12.634425 15738 net.cpp:356] conv1_2 -> conv1_2
I1021 05:29:12.634438 15738 net.cpp:96] Setting up conv1_2
I1021 05:29:12.635226 15738 net.cpp:103] Top shape: 1 64 500 500 (16000000)
I1021 05:29:12.635251 15738 layer_factory.hpp:78] Creating layer relu1_2
I1021 05:29:12.635267 15738 net.cpp:67] Creating Layer relu1_2
I1021 05:29:12.635277 15738 net.cpp:394] relu1_2 <- conv1_2
I1021 05:29:12.635288 15738 net.cpp:345] relu1_2 -> conv1_2 (in-place)
I1021 05:29:12.635309 15738 net.cpp:96] Setting up relu1_2
I1021 05:29:12.635318 15738 net.cpp:103] Top shape: 1 64 500 500 (16000000)
I1021 05:29:12.635327 15738 layer_factory.hpp:78] Creating layer pool1
I1021 05:29:12.635339 15738 net.cpp:67] Creating Layer pool1
I1021 05:29:12.635349 15738 net.cpp:394] pool1 <- conv1_2
I1021 05:29:12.635367 15738 net.cpp:356] pool1 -> pool1
I1021 05:29:12.635382 15738 net.cpp:96] Setting up pool1
I1021 05:29:12.635407 15738 net.cpp:103] Top shape: 1 64 251 251 (4032064)
I1021 05:29:12.635419 15738 layer_factory.hpp:78] Creating layer conv2_1
I1021 05:29:12.635432 15738 net.cpp:67] Creating Layer conv2_1
I1021 05:29:12.635442 15738 net.cpp:394] conv2_1 <- pool1
I1021 05:29:12.635455 15738 net.cpp:356] conv2_1 -> conv2_1
I1021 05:29:12.635470 15738 net.cpp:96] Setting up conv2_1
I1021 05:29:12.635947 15738 net.cpp:103] Top shape: 1 128 251 251 (8064128)
I1021 05:29:12.635982 15738 layer_factory.hpp:78] Creating layer relu2_1
I1021 05:29:12.635998 15738 net.cpp:67] Creating Layer relu2_1
I1021 05:29:12.636008 15738 net.cpp:394] relu2_1 <- conv2_1
I1021 05:29:12.636019 15738 net.cpp:345] relu2_1 -> conv2_1 (in-place)
I1021 05:29:12.636031 15738 net.cpp:96] Setting up relu2_1
I1021 05:29:12.636041 15738 net.cpp:103] Top shape: 1 128 251 251 (8064128)
I1021 05:29:12.636050 15738 layer_factory.hpp:78] Creating layer conv2_2
I1021 05:29:12.636066 15738 net.cpp:67] Creating Layer conv2_2
I1021 05:29:12.636077 15738 net.cpp:394] conv2_2 <- conv2_1
I1021 05:29:12.636090 15738 net.cpp:356] conv2_2 -> conv2_2
I1021 05:29:12.636102 15738 net.cpp:96] Setting up conv2_2
I1021 05:29:12.636682 15738 net.cpp:103] Top shape: 1 128 251 251 (8064128)
I1021 05:29:12.636704 15738 layer_factory.hpp:78] Creating layer relu2_2
I1021 05:29:12.636716 15738 net.cpp:67] Creating Layer relu2_2
I1021 05:29:12.636725 15738 net.cpp:394] relu2_2 <- conv2_2
I1021 05:29:12.636740 15738 net.cpp:345] relu2_2 -> conv2_2 (in-place)
I1021 05:29:12.636754 15738 net.cpp:96] Setting up relu2_2
I1021 05:29:12.636777 15738 net.cpp:103] Top shape: 1 128 251 251 (8064128)
I1021 05:29:12.636806 15738 layer_factory.hpp:78] Creating layer pool2
I1021 05:29:12.636817 15738 net.cpp:67] Creating Layer pool2
I1021 05:29:12.636827 15738 net.cpp:394] pool2 <- conv2_2
I1021 05:29:12.636838 15738 net.cpp:356] pool2 -> pool2
I1021 05:29:12.636852 15738 net.cpp:96] Setting up pool2
I1021 05:29:12.636864 15738 net.cpp:103] Top shape: 1 128 126 126 (2032128)
I1021 05:29:12.636874 15738 layer_factory.hpp:78] Creating layer conv3_1
I1021 05:29:12.636888 15738 net.cpp:67] Creating Layer conv3_1
I1021 05:29:12.636899 15738 net.cpp:394] conv3_1 <- pool2
I1021 05:29:12.636910 15738 net.cpp:356] conv3_1 -> conv3_1
I1021 05:29:12.636924 15738 net.cpp:96] Setting up conv3_1
I1021 05:29:12.637645 15738 net.cpp:103] Top shape: 1 256 126 126 (4064256)
I1021 05:29:12.637671 15738 layer_factory.hpp:78] Creating layer relu3_1
I1021 05:29:12.637684 15738 net.cpp:67] Creating Layer relu3_1
I1021 05:29:12.637693 15738 net.cpp:394] relu3_1 <- conv3_1
I1021 05:29:12.637706 15738 net.cpp:345] relu3_1 -> conv3_1 (in-place)
I1021 05:29:12.637717 15738 net.cpp:96] Setting up relu3_1
I1021 05:29:12.637727 15738 net.cpp:103] Top shape: 1 256 126 126 (4064256)
I1021 05:29:12.637737 15738 layer_factory.hpp:78] Creating layer conv3_2
I1021 05:29:12.637750 15738 net.cpp:67] Creating Layer conv3_2
I1021 05:29:12.637761 15738 net.cpp:394] conv3_2 <- conv3_1
I1021 05:29:12.637773 15738 net.cpp:356] conv3_2 -> conv3_2
I1021 05:29:12.637785 15738 net.cpp:96] Setting up conv3_2
I1021 05:29:12.640794 15738 net.cpp:103] Top shape: 1 256 126 126 (4064256)
I1021 05:29:12.640861 15738 layer_factory.hpp:78] Creating layer relu3_2
I1021 05:29:12.640879 15738 net.cpp:67] Creating Layer relu3_2
I1021 05:29:12.640890 15738 net.cpp:394] relu3_2 <- conv3_2
I1021 05:29:12.640908 15738 net.cpp:345] relu3_2 -> conv3_2 (in-place)
I1021 05:29:12.640924 15738 net.cpp:96] Setting up relu3_2
I1021 05:29:12.640934 15738 net.cpp:103] Top shape: 1 256 126 126 (4064256)
I1021 05:29:12.640943 15738 layer_factory.hpp:78] Creating layer conv3_3
I1021 05:29:12.640955 15738 net.cpp:67] Creating Layer conv3_3
I1021 05:29:12.640964 15738 net.cpp:394] conv3_3 <- conv3_2
I1021 05:29:12.640975 15738 net.cpp:356] conv3_3 -> conv3_3
I1021 05:29:12.640990 15738 net.cpp:96] Setting up conv3_3
I1021 05:29:12.642513 15738 net.cpp:103] Top shape: 1 256 126 126 (4064256)
I1021 05:29:12.642534 15738 layer_factory.hpp:78] Creating layer relu3_3
I1021 05:29:12.642554 15738 net.cpp:67] Creating Layer relu3_3
I1021 05:29:12.642565 15738 net.cpp:394] relu3_3 <- conv3_3
I1021 05:29:12.642575 15738 net.cpp:345] relu3_3 -> conv3_3 (in-place)
I1021 05:29:12.642588 15738 net.cpp:96] Setting up relu3_3
I1021 05:29:12.642597 15738 net.cpp:103] Top shape: 1 256 126 126 (4064256)
I1021 05:29:12.642606 15738 layer_factory.hpp:78] Creating layer pool3
I1021 05:29:12.642622 15738 net.cpp:67] Creating Layer pool3
I1021 05:29:12.642632 15738 net.cpp:394] pool3 <- conv3_3
I1021 05:29:12.642643 15738 net.cpp:356] pool3 -> pool3
I1021 05:29:12.642657 15738 net.cpp:96] Setting up pool3
I1021 05:29:12.642671 15738 net.cpp:103] Top shape: 1 256 64 64 (1048576)
I1021 05:29:12.642680 15738 layer_factory.hpp:78] Creating layer conv4_1
I1021 05:29:12.642693 15738 net.cpp:67] Creating Layer conv4_1
I1021 05:29:12.642702 15738 net.cpp:394] conv4_1 <- pool3
I1021 05:29:12.642716 15738 net.cpp:356] conv4_1 -> conv4_1
I1021 05:29:12.642730 15738 net.cpp:96] Setting up conv4_1
I1021 05:29:12.644845 15738 net.cpp:103] Top shape: 1 512 64 64 (2097152)
I1021 05:29:12.644870 15738 layer_factory.hpp:78] Creating layer relu4_1
I1021 05:29:12.644884 15738 net.cpp:67] Creating Layer relu4_1
I1021 05:29:12.644896 15738 net.cpp:394] relu4_1 <- conv4_1
I1021 05:29:12.644907 15738 net.cpp:345] relu4_1 -> conv4_1 (in-place)
I1021 05:29:12.644920 15738 net.cpp:96] Setting up relu4_1
I1021 05:29:12.644932 15738 net.cpp:103] Top shape: 1 512 64 64 (2097152)
I1021 05:29:12.644940 15738 layer_factory.hpp:78] Creating layer conv4_2
I1021 05:29:12.644953 15738 net.cpp:67] Creating Layer conv4_2
I1021 05:29:12.644976 15738 net.cpp:394] conv4_2 <- conv4_1
I1021 05:29:12.645004 15738 net.cpp:356] conv4_2 -> conv4_2
I1021 05:29:12.645017 15738 net.cpp:96] Setting up conv4_2
I1021 05:29:12.652477 15738 net.cpp:103] Top shape: 1 512 64 64 (2097152)
I1021 05:29:12.652554 15738 layer_factory.hpp:78] Creating layer relu4_2
I1021 05:29:12.652572 15738 net.cpp:67] Creating Layer relu4_2
I1021 05:29:12.652583 15738 net.cpp:394] relu4_2 <- conv4_2
I1021 05:29:12.652596 15738 net.cpp:345] relu4_2 -> conv4_2 (in-place)
I1021 05:29:12.652613 15738 net.cpp:96] Setting up relu4_2
I1021 05:29:12.652626 15738 net.cpp:103] Top shape: 1 512 64 64 (2097152)
I1021 05:29:12.652634 15738 layer_factory.hpp:78] Creating layer conv4_3
I1021 05:29:12.652652 15738 net.cpp:67] Creating Layer conv4_3
I1021 05:29:12.652675 15738 net.cpp:394] conv4_3 <- conv4_2
I1021 05:29:12.652690 15738 net.cpp:356] conv4_3 -> conv4_3
I1021 05:29:12.652705 15738 net.cpp:96] Setting up conv4_3
I1021 05:29:12.660390 15738 net.cpp:103] Top shape: 1 512 64 64 (2097152)
I1021 05:29:12.660459 15738 layer_factory.hpp:78] Creating layer relu4_3
I1021 05:29:12.660480 15738 net.cpp:67] Creating Layer relu4_3
I1021 05:29:12.660491 15738 net.cpp:394] relu4_3 <- conv4_3
I1021 05:29:12.660507 15738 net.cpp:345] relu4_3 -> conv4_3 (in-place)
I1021 05:29:12.660522 15738 net.cpp:96] Setting up relu4_3
I1021 05:29:12.660532 15738 net.cpp:103] Top shape: 1 512 64 64 (2097152)
I1021 05:29:12.660540 15738 layer_factory.hpp:78] Creating layer pool4
I1021 05:29:12.660555 15738 net.cpp:67] Creating Layer pool4
I1021 05:29:12.660567 15738 net.cpp:394] pool4 <- conv4_3
I1021 05:29:12.660578 15738 net.cpp:356] pool4 -> pool4
I1021 05:29:12.660598 15738 net.cpp:96] Setting up pool4
I1021 05:29:12.660612 15738 net.cpp:103] Top shape: 1 512 64 64 (2097152)
I1021 05:29:12.660624 15738 layer_factory.hpp:78] Creating layer conv5_1
I1021 05:29:12.660640 15738 net.cpp:67] Creating Layer conv5_1
I1021 05:29:12.660650 15738 net.cpp:394] conv5_1 <- pool4
I1021 05:29:12.660673 15738 net.cpp:356] conv5_1 -> conv5_1
I1021 05:29:12.660689 15738 net.cpp:96] Setting up conv5_1
I1021 05:29:12.668493 15738 net.cpp:103] Top shape: 1 512 64 64 (2097152)
I1021 05:29:12.668563 15738 layer_factory.hpp:78] Creating layer relu5_1
I1021 05:29:12.668586 15738 net.cpp:67] Creating Layer relu5_1
I1021 05:29:12.668598 15738 net.cpp:394] relu5_1 <- conv5_1
I1021 05:29:12.668617 15738 net.cpp:345] relu5_1 -> conv5_1 (in-place)
I1021 05:29:12.668632 15738 net.cpp:96] Setting up relu5_1
I1021 05:29:12.668643 15738 net.cpp:103] Top shape: 1 512 64 64 (2097152)
I1021 05:29:12.668653 15738 layer_factory.hpp:78] Creating layer conv5_2
I1021 05:29:12.668684 15738 net.cpp:67] Creating Layer conv5_2
I1021 05:29:12.668697 15738 net.cpp:394] conv5_2 <- conv5_1
I1021 05:29:12.668711 15738 net.cpp:356] conv5_2 -> conv5_2
I1021 05:29:12.668725 15738 net.cpp:96] Setting up conv5_2
I1021 05:29:12.675871 15738 net.cpp:103] Top shape: 1 512 64 64 (2097152)
I1021 05:29:12.675969 15738 layer_factory.hpp:78] Creating layer relu5_2
I1021 05:29:12.675987 15738 net.cpp:67] Creating Layer relu5_2
I1021 05:29:12.676000 15738 net.cpp:394] relu5_2 <- conv5_2
I1021 05:29:12.676014 15738 net.cpp:345] relu5_2 -> conv5_2 (in-place)
I1021 05:29:12.676031 15738 net.cpp:96] Setting up relu5_2
I1021 05:29:12.676041 15738 net.cpp:103] Top shape: 1 512 64 64 (2097152)
I1021 05:29:12.676049 15738 layer_factory.hpp:78] Creating layer conv5_3
I1021 05:29:12.676064 15738 net.cpp:67] Creating Layer conv5_3
I1021 05:29:12.676074 15738 net.cpp:394] conv5_3 <- conv5_2
I1021 05:29:12.676085 15738 net.cpp:356] conv5_3 -> conv5_3
I1021 05:29:12.676098 15738 net.cpp:96] Setting up conv5_3
I1021 05:29:12.682852 15738 net.cpp:103] Top shape: 1 512 64 64 (2097152)
I1021 05:29:12.682938 15738 layer_factory.hpp:78] Creating layer relu5_3
I1021 05:29:12.682961 15738 net.cpp:67] Creating Layer relu5_3
I1021 05:29:12.682974 15738 net.cpp:394] relu5_3 <- conv5_3
I1021 05:29:12.682988 15738 net.cpp:345] relu5_3 -> conv5_3 (in-place)
I1021 05:29:12.683004 15738 net.cpp:96] Setting up relu5_3
I1021 05:29:12.683032 15738 net.cpp:103] Top shape: 1 512 64 64 (2097152)
I1021 05:29:12.683059 15738 layer_factory.hpp:78] Creating layer pool5
I1021 05:29:12.683073 15738 net.cpp:67] Creating Layer pool5
I1021 05:29:12.683084 15738 net.cpp:394] pool5 <- conv5_3
I1021 05:29:12.683095 15738 net.cpp:356] pool5 -> pool5
I1021 05:29:12.683109 15738 net.cpp:96] Setting up pool5
I1021 05:29:12.683123 15738 net.cpp:103] Top shape: 1 512 64 64 (2097152)
I1021 05:29:12.683133 15738 layer_factory.hpp:78] Creating layer pool5a
I1021 05:29:12.683153 15738 net.cpp:67] Creating Layer pool5a
I1021 05:29:12.683164 15738 net.cpp:394] pool5a <- pool5
I1021 05:29:12.683176 15738 net.cpp:356] pool5a -> pool5a
I1021 05:29:12.683188 15738 net.cpp:96] Setting up pool5a
I1021 05:29:12.683198 15738 net.cpp:103] Top shape: 1 512 64 64 (2097152)
I1021 05:29:12.683207 15738 layer_factory.hpp:78] Creating layer fc6
I1021 05:29:12.683223 15738 net.cpp:67] Creating Layer fc6
I1021 05:29:12.683233 15738 net.cpp:394] fc6 <- pool5a
I1021 05:29:12.683243 15738 net.cpp:356] fc6 -> fc6
I1021 05:29:12.683256 15738 net.cpp:96] Setting up fc6
I1021 05:29:12.694890 15738 net.cpp:103] Top shape: 1 1024 64 64 (4194304)
I1021 05:29:12.694977 15738 layer_factory.hpp:78] Creating layer relu6
I1021 05:29:12.695001 15738 net.cpp:67] Creating Layer relu6
I1021 05:29:12.695013 15738 net.cpp:394] relu6 <- fc6
I1021 05:29:12.695029 15738 net.cpp:345] relu6 -> fc6 (in-place)
I1021 05:29:12.695042 15738 net.cpp:96] Setting up relu6
I1021 05:29:12.695051 15738 net.cpp:103] Top shape: 1 1024 64 64 (4194304)
I1021 05:29:12.695060 15738 layer_factory.hpp:78] Creating layer drop6
I1021 05:29:12.695073 15738 net.cpp:67] Creating Layer drop6
I1021 05:29:12.695081 15738 net.cpp:394] drop6 <- fc6
I1021 05:29:12.695093 15738 net.cpp:345] drop6 -> fc6 (in-place)
I1021 05:29:12.695106 15738 net.cpp:96] Setting up drop6
I1021 05:29:12.695116 15738 net.cpp:103] Top shape: 1 1024 64 64 (4194304)
I1021 05:29:12.695127 15738 layer_factory.hpp:78] Creating layer fc7
I1021 05:29:12.695138 15738 net.cpp:67] Creating Layer fc7
I1021 05:29:12.695147 15738 net.cpp:394] fc7 <- fc6
I1021 05:29:12.695209 15738 net.cpp:356] fc7 -> fc7
I1021 05:29:12.695228 15738 net.cpp:96] Setting up fc7
I1021 05:29:12.697377 15738 net.cpp:103] Top shape: 1 1024 64 64 (4194304)
I1021 05:29:12.697404 15738 layer_factory.hpp:78] Creating layer relu7
I1021 05:29:12.697417 15738 net.cpp:67] Creating Layer relu7
I1021 05:29:12.697425 15738 net.cpp:394] relu7 <- fc7
I1021 05:29:12.697438 15738 net.cpp:345] relu7 -> fc7 (in-place)
I1021 05:29:12.697453 15738 net.cpp:96] Setting up relu7
I1021 05:29:12.697461 15738 net.cpp:103] Top shape: 1 1024 64 64 (4194304)
I1021 05:29:12.697470 15738 layer_factory.hpp:78] Creating layer drop7
I1021 05:29:12.697481 15738 net.cpp:67] Creating Layer drop7
I1021 05:29:12.697489 15738 net.cpp:394] drop7 <- fc7
I1021 05:29:12.697499 15738 net.cpp:345] drop7 -> fc7 (in-place)
I1021 05:29:12.697511 15738 net.cpp:96] Setting up drop7
I1021 05:29:12.697521 15738 net.cpp:103] Top shape: 1 1024 64 64 (4194304)
I1021 05:29:12.697530 15738 layer_factory.hpp:78] Creating layer fc8_baxter
I1021 05:29:12.697543 15738 net.cpp:67] Creating Layer fc8_baxter
I1021 05:29:12.697552 15738 net.cpp:394] fc8_baxter <- fc7
I1021 05:29:12.697566 15738 net.cpp:356] fc8_baxter -> fc8_baxter
I1021 05:29:12.697579 15738 net.cpp:96] Setting up fc8_baxter
I1021 05:29:12.697710 15738 net.cpp:103] Top shape: 1 2 64 64 (8192)
I1021 05:29:12.697727 15738 layer_factory.hpp:78] Creating layer upscore
I1021 05:29:12.697741 15738 net.cpp:67] Creating Layer upscore
I1021 05:29:12.697751 15738 net.cpp:394] upscore <- fc8_baxter
I1021 05:29:12.697768 15738 net.cpp:356] upscore -> upscore
I1021 05:29:12.697782 15738 net.cpp:96] Setting up upscore
I1021 05:29:12.697795 15738 net.cpp:103] Top shape: 1 2 500 500 (500000)
I1021 05:29:12.697804 15738 layer_factory.hpp:78] Creating layer loss
I1021 05:29:12.697818 15738 net.cpp:67] Creating Layer loss
I1021 05:29:12.697829 15738 net.cpp:394] loss <- upscore
I1021 05:29:12.697856 15738 net.cpp:394] loss <- label
I1021 05:29:12.697883 15738 net.cpp:356] loss -> loss
I1021 05:29:12.697906 15738 net.cpp:96] Setting up loss
I1021 05:29:12.697921 15738 softmax_loss_layer.cpp:40] Weight_Loss file is not provided. Assign all one to it.
I1021 05:29:12.697933 15738 net.cpp:103] Top shape: 1 1 1 1 (1)
I1021 05:29:12.697943 15738 net.cpp:109]     with loss weight 1
I1021 05:29:12.697978 15738 net.cpp:170] loss needs backward computation.
I1021 05:29:12.697989 15738 net.cpp:170] upscore needs backward computation.
I1021 05:29:12.697999 15738 net.cpp:170] fc8_baxter needs backward computation.
I1021 05:29:12.698007 15738 net.cpp:170] drop7 needs backward computation.
I1021 05:29:12.698015 15738 net.cpp:170] relu7 needs backward computation.
…
