…
I1021 05:52:31.472688 22701 net.cpp:275] The NetState phase (0) differed from the phase (1) specified by a rule in layer data
I1021 05:52:31.473006 22701 net.cpp:39] Initializing net from parameters: 
name: "melanoma_tutorial_full"
layers {
  top: "data"
  top: "label"
  name: "data"
  type: IMAGE_SEG_DATA
  image_data_param {
    source: "/home/thanhnt/melanoma_tutorial/data/txt/train_list.txt"
    batch_size: 1
    shuffle: true
    root_folder: "/home/thanhnt/phase_1/data/"
    label_type: PIXEL
  }
  include {
    phase: TRAIN
  }
  transform_param {
    mirror: true
    crop_size: 500
    mean_value: 144.15103
    mean_value: 157.14572
    mean_value: 184.01074
  }
}
layers {
  bottom: "data"
  top: "conv1_1"
  name: "conv1_1"
  type: CONVOLUTION
  blobs_lr: 1
  blobs_lr: 2
  weight_decay: 1
  weight_decay: 0
  convolution_param {
    num_output: 64
    pad: 1
    kernel_size: 3
  }
}
layers {
  bottom: "conv1_1"
  top: "conv1_1"
  name: "relu1_1"
  type: RELU
}
layers {
  bottom: "conv1_1"
  top: "conv1_2"
  name: "conv1_2"
  type: CONVOLUTION
  blobs_lr: 1
  blobs_lr: 2
  weight_decay: 1
  weight_decay: 0
  convolution_param {
    num_output: 64
    pad: 1
    kernel_size: 3
  }
}
layers {
  bottom: "conv1_2"
  top: "conv1_2"
  name: "relu1_2"
  type: RELU
}
layers {
  bottom: "conv1_2"
  top: "pool1"
  name: "pool1"
  type: POOLING
  pooling_param {
    pool: MAX
    kernel_size: 3
    stride: 2
    pad: 1
  }
}
layers {
  bottom: "pool1"
  top: "conv2_1"
  name: "conv2_1"
  type: CONVOLUTION
  blobs_lr: 1
  blobs_lr: 2
  weight_decay: 1
  weight_decay: 0
  convolution_param {
    num_output: 128
    pad: 1
    kernel_size: 3
  }
}
layers {
  bottom: "conv2_1"
  top: "conv2_1"
  name: "relu2_1"
  type: RELU
}
layers {
  bottom: "conv2_1"
  top: "conv2_2"
  name: "conv2_2"
  type: CONVOLUTION
  blobs_lr: 1
  blobs_lr: 2
  weight_decay: 1
  weight_decay: 0
  convolution_param {
    num_output: 128
    pad: 1
    kernel_size: 3
  }
}
layers {
  bottom: "conv2_2"
  top: "conv2_2"
  name: "relu2_2"
  type: RELU
}
layers {
  bottom: "conv2_2"
  top: "pool2"
  name: "pool2"
  type: POOLING
  pooling_param {
    pool: MAX
    kernel_size: 3
    stride: 2
    pad: 1
  }
}
layers {
  bottom: "pool2"
  top: "conv3_1"
  name: "conv3_1"
  type: CONVOLUTION
  blobs_lr: 1
  blobs_lr: 2
  weight_decay: 1
  weight_decay: 0
  convolution_param {
    num_output: 256
    pad: 1
    kernel_size: 3
  }
}
layers {
  bottom: "conv3_1"
  top: "conv3_1"
  name: "relu3_1"
  type: RELU
}
layers {
  bottom: "conv3_1"
  top: "conv3_2"
  name: "conv3_2"
  type: CONVOLUTION
  blobs_lr: 1
  blobs_lr: 2
  weight_decay: 1
  weight_decay: 0
  convolution_param {
    num_output: 256
    pad: 1
    kernel_size: 3
  }
}
layers {
  bottom: "conv3_2"
  top: "conv3_2"
  name: "relu3_2"
  type: RELU
}
layers {
  bottom: "conv3_2"
  top: "conv3_3"
  name: "conv3_3"
  type: CONVOLUTION
  blobs_lr: 1
  blobs_lr: 2
  weight_decay: 1
  weight_decay: 0
  convolution_param {
    num_output: 256
    pad: 1
    kernel_size: 3
  }
}
layers {
  bottom: "conv3_3"
  top: "conv3_3"
  name: "relu3_3"
  type: RELU
}
layers {
  bottom: "conv3_3"
  top: "pool3"
  name: "pool3"
  type: POOLING
  pooling_param {
    pool: MAX
    kernel_size: 3
    stride: 2
    pad: 1
  }
}
layers {
  bottom: "pool3"
  top: "conv4_1"
  name: "conv4_1"
  type: CONVOLUTION
  blobs_lr: 1
  blobs_lr: 2
  weight_decay: 1
  weight_decay: 0
  convolution_param {
    num_output: 512
    pad: 1
    kernel_size: 3
  }
}
layers {
  bottom: "conv4_1"
  top: "conv4_1"
  name: "relu4_1"
  type: RELU
}
layers {
  bottom: "conv4_1"
  top: "conv4_2"
  name: "conv4_2"
  type: CONVOLUTION
  blobs_lr: 1
  blobs_lr: 2
  weight_decay: 1
  weight_decay: 0
  convolution_param {
    num_output: 512
    pad: 1
    kernel_size: 3
  }
}
layers {
  bottom: "conv4_2"
  top: "conv4_2"
  name: "relu4_2"
  type: RELU
}
layers {
  bottom: "conv4_2"
  top: "conv4_3"
  name: "conv4_3"
  type: CONVOLUTION
  blobs_lr: 1
  blobs_lr: 2
  weight_decay: 1
  weight_decay: 0
  convolution_param {
    num_output: 512
    pad: 1
    kernel_size: 3
  }
}
layers {
  bottom: "conv4_3"
  top: "conv4_3"
  name: "relu4_3"
  type: RELU
}
layers {
  bottom: "conv4_3"
  top: "pool4"
  name: "pool4"
  type: POOLING
  pooling_param {
    pool: MAX
    kernel_size: 3
    stride: 1
    pad: 1
  }
}
layers {
  bottom: "pool4"
  top: "conv5_1"
  name: "conv5_1"
  type: CONVOLUTION
  blobs_lr: 1
  blobs_lr: 2
  weight_decay: 1
  weight_decay: 0
  convolution_param {
    num_output: 512
    pad: 2
    kernel_size: 3
    hole: 2
  }
}
layers {
  bottom: "conv5_1"
  top: "conv5_1"
  name: "relu5_1"
  type: RELU
}
layers {
  bottom: "conv5_1"
  top: "conv5_2"
  name: "conv5_2"
  type: CONVOLUTION
  blobs_lr: 1
  blobs_lr: 2
  weight_decay: 1
  weight_decay: 0
  convolution_param {
    num_output: 512
    pad: 2
    kernel_size: 3
    hole: 2
  }
}
layers {
  bottom: "conv5_2"
  top: "conv5_2"
  name: "relu5_2"
  type: RELU
}
layers {
  bottom: "conv5_2"
  top: "conv5_3"
  name: "conv5_3"
  type: CONVOLUTION
  blobs_lr: 1
  blobs_lr: 2
  weight_decay: 1
  weight_decay: 0
  convolution_param {
    num_output: 512
    pad: 2
    kernel_size: 3
    hole: 2
  }
}
layers {
  bottom: "conv5_3"
  top: "conv5_3"
  name: "relu5_3"
  type: RELU
}
layers {
  bottom: "conv5_3"
  top: "pool5"
  name: "pool5"
  type: POOLING
  pooling_param {
    pool: MAX
    kernel_size: 3
    stride: 1
    pad: 1
  }
}
layers {
  bottom: "pool5"
  top: "pool5a"
  name: "pool5a"
  type: POOLING
  pooling_param {
    pool: AVE
    kernel_size: 3
    stride: 1
    pad: 1
  }
}
layers {
  bottom: "pool5a"
  top: "fc6"
  name: "fc6"
  type: CONVOLUTION
  blobs_lr: 1
  blobs_lr: 2
  weight_decay: 1
  weight_decay: 0
  convolution_param {
    num_output: 1024
    pad: 12
    kernel_size: 3
    hole: 12
  }
}
layers {
  bottom: "fc6"
  top: "fc6"
  name: "relu6"
  type: RELU
}
layers {
  bottom: "fc6"
  top: "fc6"
  name: "drop6"
  type: DROPOUT
  dropout_param {
    dropout_ratio: 0.5
  }
}
layers {
  bottom: "fc6"
  top: "fc7"
  name: "fc7"
  type: CONVOLUTION
  blobs_lr: 1
  blobs_lr: 2
  weight_decay: 1
  weight_decay: 0
  convolution_param {
    num_output: 1024
    kernel_size: 1
  }
}
layers {
  bottom: "fc7"
  top: "fc7"
  name: "relu7"
  type: RELU
}
layers {
  bottom: "fc7"
  top: "fc7"
  name: "drop7"
  type: DROPOUT
  dropout_param {
    dropout_ratio: 0.5
  }
}
layers {
  bottom: "fc7"
  top: "fc8_baxter"
  name: "fc8_baxter"
  type: CONVOLUTION
  blobs_lr: 1
  blobs_lr: 2
  weight_decay: 1
  weight_decay: 0
  convolution_param {
    num_output: 2
    kernel_size: 1
    weight_filler {
      type: "gaussian"
      std: 0.01
    }
    bias_filler {
      type: "constant"
      value: 0
    }
  }
}
layers {
  bottom: "fc8_baxter"
  top: "upscore"
  name: "upscore"
  type: INTERP
  interp_param {
    height: 500
    width: 500
  }
}
layers {
  bottom: "upscore"
  bottom: "label"
  top: "loss"
  name: "loss"
  type: SOFTMAX_LOSS
}
state {
  phase: TRAIN
}
I1021 05:52:31.473214 22701 layer_factory.hpp:78] Creating layer data
I1021 05:52:31.473259 22701 net.cpp:67] Creating Layer data
I1021 05:52:31.473275 22701 net.cpp:356] data -> data
I1021 05:52:31.473315 22701 net.cpp:356] data -> label
I1021 05:52:31.473335 22701 net.cpp:356] data -> (automatic)
I1021 05:52:31.473350 22701 net.cpp:96] Setting up data
I1021 05:52:31.473361 22701 image_seg_data_layer.cpp:45] Opening file /home/thanhnt/melanoma_tutorial/data/txt/train_list.txt
I1021 05:52:31.474418 22701 image_seg_data_layer.cpp:62] Shuffling data
I1021 05:52:31.475004 22701 image_seg_data_layer.cpp:67] A total of 810 images.
I1021 05:52:31.551039 22701 image_seg_data_layer.cpp:113] output data size: 1,3,500,500
I1021 05:52:31.551105 22701 image_seg_data_layer.cpp:117] output label size: 1,1,500,500
I1021 05:52:31.551115 22701 image_seg_data_layer.cpp:121] output data_dim size: 1,1,1,2
I1021 05:52:31.552659 22701 net.cpp:103] Top shape: 1 3 500 500 (750000)
I1021 05:52:31.552690 22701 net.cpp:103] Top shape: 1 1 500 500 (250000)
I1021 05:52:31.552701 22701 net.cpp:103] Top shape: 1 1 1 2 (2)
I1021 05:52:31.552711 22701 layer_factory.hpp:78] Creating layer conv1_1
I1021 05:52:31.552733 22701 net.cpp:67] Creating Layer conv1_1
I1021 05:52:31.552745 22701 net.cpp:394] conv1_1 <- data
I1021 05:52:31.552768 22701 net.cpp:356] conv1_1 -> conv1_1
I1021 05:52:31.552788 22701 net.cpp:96] Setting up conv1_1
I1021 05:52:31.553447 22701 net.cpp:103] Top shape: 1 64 500 500 (16000000)
I1021 05:52:31.553479 22701 layer_factory.hpp:78] Creating layer relu1_1
I1021 05:52:31.553493 22701 net.cpp:67] Creating Layer relu1_1
I1021 05:52:31.553504 22701 net.cpp:394] relu1_1 <- conv1_1
I1021 05:52:31.553517 22701 net.cpp:345] relu1_1 -> conv1_1 (in-place)
I1021 05:52:31.553530 22701 net.cpp:96] Setting up relu1_1
I1021 05:52:31.553550 22701 net.cpp:103] Top shape: 1 64 500 500 (16000000)
I1021 05:52:31.553560 22701 layer_factory.hpp:78] Creating layer conv1_2
I1021 05:52:31.553571 22701 net.cpp:67] Creating Layer conv1_2
I1021 05:52:31.553580 22701 net.cpp:394] conv1_2 <- conv1_1
I1021 05:52:31.553592 22701 net.cpp:356] conv1_2 -> conv1_2
I1021 05:52:31.553607 22701 net.cpp:96] Setting up conv1_2
I1021 05:52:31.554425 22701 net.cpp:103] Top shape: 1 64 500 500 (16000000)
I1021 05:52:31.554451 22701 layer_factory.hpp:78] Creating layer relu1_2
I1021 05:52:31.554468 22701 net.cpp:67] Creating Layer relu1_2
I1021 05:52:31.554478 22701 net.cpp:394] relu1_2 <- conv1_2
I1021 05:52:31.554491 22701 net.cpp:345] relu1_2 -> conv1_2 (in-place)
I1021 05:52:31.554504 22701 net.cpp:96] Setting up relu1_2
I1021 05:52:31.554514 22701 net.cpp:103] Top shape: 1 64 500 500 (16000000)
I1021 05:52:31.554524 22701 layer_factory.hpp:78] Creating layer pool1
I1021 05:52:31.554538 22701 net.cpp:67] Creating Layer pool1
I1021 05:52:31.554548 22701 net.cpp:394] pool1 <- conv1_2
I1021 05:52:31.554561 22701 net.cpp:356] pool1 -> pool1
I1021 05:52:31.554575 22701 net.cpp:96] Setting up pool1
I1021 05:52:31.554603 22701 net.cpp:103] Top shape: 1 64 251 251 (4032064)
I1021 05:52:31.554615 22701 layer_factory.hpp:78] Creating layer conv2_1
I1021 05:52:31.554627 22701 net.cpp:67] Creating Layer conv2_1
I1021 05:52:31.554636 22701 net.cpp:394] conv2_1 <- pool1
I1021 05:52:31.554652 22701 net.cpp:356] conv2_1 -> conv2_1
I1021 05:52:31.554666 22701 net.cpp:96] Setting up conv2_1
I1021 05:52:31.555045 22701 net.cpp:103] Top shape: 1 128 251 251 (8064128)
I1021 05:52:31.555073 22701 layer_factory.hpp:78] Creating layer relu2_1
I1021 05:52:31.555085 22701 net.cpp:67] Creating Layer relu2_1
I1021 05:52:31.555095 22701 net.cpp:394] relu2_1 <- conv2_1
I1021 05:52:31.555109 22701 net.cpp:345] relu2_1 -> conv2_1 (in-place)
I1021 05:52:31.555120 22701 net.cpp:96] Setting up relu2_1
I1021 05:52:31.555129 22701 net.cpp:103] Top shape: 1 128 251 251 (8064128)
I1021 05:52:31.555140 22701 layer_factory.hpp:78] Creating layer conv2_2
I1021 05:52:31.555155 22701 net.cpp:67] Creating Layer conv2_2
I1021 05:52:31.555164 22701 net.cpp:394] conv2_2 <- conv2_1
I1021 05:52:31.555177 22701 net.cpp:356] conv2_2 -> conv2_2
I1021 05:52:31.555191 22701 net.cpp:96] Setting up conv2_2
I1021 05:52:31.555737 22701 net.cpp:103] Top shape: 1 128 251 251 (8064128)
I1021 05:52:31.555758 22701 layer_factory.hpp:78] Creating layer relu2_2
I1021 05:52:31.555770 22701 net.cpp:67] Creating Layer relu2_2
I1021 05:52:31.555780 22701 net.cpp:394] relu2_2 <- conv2_2
I1021 05:52:31.555797 22701 net.cpp:345] relu2_2 -> conv2_2 (in-place)
I1021 05:52:31.555811 22701 net.cpp:96] Setting up relu2_2
I1021 05:52:31.555837 22701 net.cpp:103] Top shape: 1 128 251 251 (8064128)
I1021 05:52:31.555861 22701 layer_factory.hpp:78] Creating layer pool2
I1021 05:52:31.555874 22701 net.cpp:67] Creating Layer pool2
I1021 05:52:31.555884 22701 net.cpp:394] pool2 <- conv2_2
I1021 05:52:31.555896 22701 net.cpp:356] pool2 -> pool2
I1021 05:52:31.555912 22701 net.cpp:96] Setting up pool2
I1021 05:52:31.555923 22701 net.cpp:103] Top shape: 1 128 126 126 (2032128)
I1021 05:52:31.555933 22701 layer_factory.hpp:78] Creating layer conv3_1
I1021 05:52:31.555948 22701 net.cpp:67] Creating Layer conv3_1
I1021 05:52:31.555958 22701 net.cpp:394] conv3_1 <- pool2
I1021 05:52:31.555974 22701 net.cpp:356] conv3_1 -> conv3_1
I1021 05:52:31.555986 22701 net.cpp:96] Setting up conv3_1
I1021 05:52:31.556743 22701 net.cpp:103] Top shape: 1 256 126 126 (4064256)
I1021 05:52:31.556776 22701 layer_factory.hpp:78] Creating layer relu3_1
I1021 05:52:31.556789 22701 net.cpp:67] Creating Layer relu3_1
I1021 05:52:31.556799 22701 net.cpp:394] relu3_1 <- conv3_1
I1021 05:52:31.556810 22701 net.cpp:345] relu3_1 -> conv3_1 (in-place)
I1021 05:52:31.556823 22701 net.cpp:96] Setting up relu3_1
I1021 05:52:31.556833 22701 net.cpp:103] Top shape: 1 256 126 126 (4064256)
I1021 05:52:31.556843 22701 layer_factory.hpp:78] Creating layer conv3_2
I1021 05:52:31.556859 22701 net.cpp:67] Creating Layer conv3_2
I1021 05:52:31.556869 22701 net.cpp:394] conv3_2 <- conv3_1
I1021 05:52:31.556881 22701 net.cpp:356] conv3_2 -> conv3_2
I1021 05:52:31.556895 22701 net.cpp:96] Setting up conv3_2
I1021 05:52:31.560425 22701 net.cpp:103] Top shape: 1 256 126 126 (4064256)
I1021 05:52:31.560503 22701 layer_factory.hpp:78] Creating layer relu3_2
I1021 05:52:31.560518 22701 net.cpp:67] Creating Layer relu3_2
I1021 05:52:31.560528 22701 net.cpp:394] relu3_2 <- conv3_2
I1021 05:52:31.560546 22701 net.cpp:345] relu3_2 -> conv3_2 (in-place)
I1021 05:52:31.560560 22701 net.cpp:96] Setting up relu3_2
I1021 05:52:31.560571 22701 net.cpp:103] Top shape: 1 256 126 126 (4064256)
I1021 05:52:31.560581 22701 layer_factory.hpp:78] Creating layer conv3_3
I1021 05:52:31.560593 22701 net.cpp:67] Creating Layer conv3_3
I1021 05:52:31.560602 22701 net.cpp:394] conv3_3 <- conv3_2
I1021 05:52:31.560614 22701 net.cpp:356] conv3_3 -> conv3_3
I1021 05:52:31.560627 22701 net.cpp:96] Setting up conv3_3
I1021 05:52:31.562117 22701 net.cpp:103] Top shape: 1 256 126 126 (4064256)
I1021 05:52:31.562140 22701 layer_factory.hpp:78] Creating layer relu3_3
I1021 05:52:31.562160 22701 net.cpp:67] Creating Layer relu3_3
I1021 05:52:31.562168 22701 net.cpp:394] relu3_3 <- conv3_3
I1021 05:52:31.562180 22701 net.cpp:345] relu3_3 -> conv3_3 (in-place)
I1021 05:52:31.562192 22701 net.cpp:96] Setting up relu3_3
I1021 05:52:31.562202 22701 net.cpp:103] Top shape: 1 256 126 126 (4064256)
I1021 05:52:31.562211 22701 layer_factory.hpp:78] Creating layer pool3
I1021 05:52:31.562227 22701 net.cpp:67] Creating Layer pool3
I1021 05:52:31.562237 22701 net.cpp:394] pool3 <- conv3_3
I1021 05:52:31.562247 22701 net.cpp:356] pool3 -> pool3
I1021 05:52:31.562259 22701 net.cpp:96] Setting up pool3
I1021 05:52:31.562271 22701 net.cpp:103] Top shape: 1 256 64 64 (1048576)
I1021 05:52:31.562281 22701 layer_factory.hpp:78] Creating layer conv4_1
I1021 05:52:31.562291 22701 net.cpp:67] Creating Layer conv4_1
I1021 05:52:31.562301 22701 net.cpp:394] conv4_1 <- pool3
I1021 05:52:31.562314 22701 net.cpp:356] conv4_1 -> conv4_1
I1021 05:52:31.562328 22701 net.cpp:96] Setting up conv4_1
I1021 05:52:31.566403 22701 net.cpp:103] Top shape: 1 512 64 64 (2097152)
I1021 05:52:31.566489 22701 layer_factory.hpp:78] Creating layer relu4_1
I1021 05:52:31.566510 22701 net.cpp:67] Creating Layer relu4_1
I1021 05:52:31.566522 22701 net.cpp:394] relu4_1 <- conv4_1
I1021 05:52:31.566541 22701 net.cpp:345] relu4_1 -> conv4_1 (in-place)
I1021 05:52:31.566555 22701 net.cpp:96] Setting up relu4_1
I1021 05:52:31.566565 22701 net.cpp:103] Top shape: 1 512 64 64 (2097152)
I1021 05:52:31.566573 22701 layer_factory.hpp:78] Creating layer conv4_2
I1021 05:52:31.566606 22701 net.cpp:67] Creating Layer conv4_2
I1021 05:52:31.566634 22701 net.cpp:394] conv4_2 <- conv4_1
I1021 05:52:31.566648 22701 net.cpp:356] conv4_2 -> conv4_2
I1021 05:52:31.566661 22701 net.cpp:96] Setting up conv4_2
I1021 05:52:31.572525 22701 net.cpp:103] Top shape: 1 512 64 64 (2097152)
I1021 05:52:31.572645 22701 layer_factory.hpp:78] Creating layer relu4_2
I1021 05:52:31.572700 22701 net.cpp:67] Creating Layer relu4_2
I1021 05:52:31.572712 22701 net.cpp:394] relu4_2 <- conv4_2
I1021 05:52:31.572731 22701 net.cpp:345] relu4_2 -> conv4_2 (in-place)
I1021 05:52:31.573173 22701 net.cpp:96] Setting up relu4_2
I1021 05:52:31.573273 22701 net.cpp:103] Top shape: 1 512 64 64 (2097152)
I1021 05:52:31.573284 22701 layer_factory.hpp:78] Creating layer conv4_3
I1021 05:52:31.573318 22701 net.cpp:67] Creating Layer conv4_3
I1021 05:52:31.573330 22701 net.cpp:394] conv4_3 <- conv4_2
I1021 05:52:31.573348 22701 net.cpp:356] conv4_3 -> conv4_3
I1021 05:52:31.573366 22701 net.cpp:96] Setting up conv4_3
I1021 05:52:31.578088 22701 net.cpp:103] Top shape: 1 512 64 64 (2097152)
I1021 05:52:31.578166 22701 layer_factory.hpp:78] Creating layer relu4_3
I1021 05:52:31.578183 22701 net.cpp:67] Creating Layer relu4_3
I1021 05:52:31.578194 22701 net.cpp:394] relu4_3 <- conv4_3
I1021 05:52:31.578209 22701 net.cpp:345] relu4_3 -> conv4_3 (in-place)
I1021 05:52:31.578222 22701 net.cpp:96] Setting up relu4_3
I1021 05:52:31.578233 22701 net.cpp:103] Top shape: 1 512 64 64 (2097152)
I1021 05:52:31.578240 22701 layer_factory.hpp:78] Creating layer pool4
I1021 05:52:31.578259 22701 net.cpp:67] Creating Layer pool4
I1021 05:52:31.578270 22701 net.cpp:394] pool4 <- conv4_3
I1021 05:52:31.578282 22701 net.cpp:356] pool4 -> pool4
I1021 05:52:31.578299 22701 net.cpp:96] Setting up pool4
I1021 05:52:31.578313 22701 net.cpp:103] Top shape: 1 512 64 64 (2097152)
I1021 05:52:31.578323 22701 layer_factory.hpp:78] Creating layer conv5_1
I1021 05:52:31.578338 22701 net.cpp:67] Creating Layer conv5_1
I1021 05:52:31.578348 22701 net.cpp:394] conv5_1 <- pool4
I1021 05:52:31.578359 22701 net.cpp:356] conv5_1 -> conv5_1
I1021 05:52:31.578373 22701 net.cpp:96] Setting up conv5_1
I1021 05:52:31.585299 22701 net.cpp:103] Top shape: 1 512 64 64 (2097152)
I1021 05:52:31.585377 22701 layer_factory.hpp:78] Creating layer relu5_1
I1021 05:52:31.585393 22701 net.cpp:67] Creating Layer relu5_1
I1021 05:52:31.585403 22701 net.cpp:394] relu5_1 <- conv5_1
I1021 05:52:31.585418 22701 net.cpp:345] relu5_1 -> conv5_1 (in-place)
I1021 05:52:31.585433 22701 net.cpp:96] Setting up relu5_1
I1021 05:52:31.585443 22701 net.cpp:103] Top shape: 1 512 64 64 (2097152)
I1021 05:52:31.585451 22701 layer_factory.hpp:78] Creating layer conv5_2
I1021 05:52:31.585465 22701 net.cpp:67] Creating Layer conv5_2
I1021 05:52:31.585474 22701 net.cpp:394] conv5_2 <- conv5_1
I1021 05:52:31.585486 22701 net.cpp:356] conv5_2 -> conv5_2
I1021 05:52:31.585500 22701 net.cpp:96] Setting up conv5_2
I1021 05:52:31.592021 22701 net.cpp:103] Top shape: 1 512 64 64 (2097152)
I1021 05:52:31.592100 22701 layer_factory.hpp:78] Creating layer relu5_2
I1021 05:52:31.592118 22701 net.cpp:67] Creating Layer relu5_2
I1021 05:52:31.592128 22701 net.cpp:394] relu5_2 <- conv5_2
I1021 05:52:31.592144 22701 net.cpp:345] relu5_2 -> conv5_2 (in-place)
I1021 05:52:31.592157 22701 net.cpp:96] Setting up relu5_2
I1021 05:52:31.592166 22701 net.cpp:103] Top shape: 1 512 64 64 (2097152)
I1021 05:52:31.592175 22701 layer_factory.hpp:78] Creating layer conv5_3
I1021 05:52:31.592190 22701 net.cpp:67] Creating Layer conv5_3
I1021 05:52:31.592200 22701 net.cpp:394] conv5_3 <- conv5_2
I1021 05:52:31.592211 22701 net.cpp:356] conv5_3 -> conv5_3
I1021 05:52:31.592222 22701 net.cpp:96] Setting up conv5_3
I1021 05:52:31.598382 22701 net.cpp:103] Top shape: 1 512 64 64 (2097152)
I1021 05:52:31.598460 22701 layer_factory.hpp:78] Creating layer relu5_3
I1021 05:52:31.598479 22701 net.cpp:67] Creating Layer relu5_3
I1021 05:52:31.598489 22701 net.cpp:394] relu5_3 <- conv5_3
I1021 05:52:31.598505 22701 net.cpp:345] relu5_3 -> conv5_3 (in-place)
I1021 05:52:31.598539 22701 net.cpp:96] Setting up relu5_3
I1021 05:52:31.598565 22701 net.cpp:103] Top shape: 1 512 64 64 (2097152)
I1021 05:52:31.598574 22701 layer_factory.hpp:78] Creating layer pool5
I1021 05:52:31.598587 22701 net.cpp:67] Creating Layer pool5
I1021 05:52:31.598597 22701 net.cpp:394] pool5 <- conv5_3
I1021 05:52:31.598608 22701 net.cpp:356] pool5 -> pool5
I1021 05:52:31.598623 22701 net.cpp:96] Setting up pool5
I1021 05:52:31.598634 22701 net.cpp:103] Top shape: 1 512 64 64 (2097152)
I1021 05:52:31.598644 22701 layer_factory.hpp:78] Creating layer pool5a
I1021 05:52:31.598661 22701 net.cpp:67] Creating Layer pool5a
I1021 05:52:31.598671 22701 net.cpp:394] pool5a <- pool5
I1021 05:52:31.598682 22701 net.cpp:356] pool5a -> pool5a
I1021 05:52:31.598695 22701 net.cpp:96] Setting up pool5a
I1021 05:52:31.598704 22701 net.cpp:103] Top shape: 1 512 64 64 (2097152)
I1021 05:52:31.598713 22701 layer_factory.hpp:78] Creating layer fc6
I1021 05:52:31.598727 22701 net.cpp:67] Creating Layer fc6
I1021 05:52:31.598736 22701 net.cpp:394] fc6 <- pool5a
I1021 05:52:31.598747 22701 net.cpp:356] fc6 -> fc6
I1021 05:52:31.598758 22701 net.cpp:96] Setting up fc6
I1021 05:52:31.610687 22701 net.cpp:103] Top shape: 1 1024 64 64 (4194304)
I1021 05:52:31.610765 22701 layer_factory.hpp:78] Creating layer relu6
I1021 05:52:31.610783 22701 net.cpp:67] Creating Layer relu6
I1021 05:52:31.610795 22701 net.cpp:394] relu6 <- fc6
I1021 05:52:31.610810 22701 net.cpp:345] relu6 -> fc6 (in-place)
I1021 05:52:31.610823 22701 net.cpp:96] Setting up relu6
I1021 05:52:31.610834 22701 net.cpp:103] Top shape: 1 1024 64 64 (4194304)
I1021 05:52:31.610843 22701 layer_factory.hpp:78] Creating layer drop6
I1021 05:52:31.610855 22701 net.cpp:67] Creating Layer drop6
I1021 05:52:31.610864 22701 net.cpp:394] drop6 <- fc6
I1021 05:52:31.610875 22701 net.cpp:345] drop6 -> fc6 (in-place)
I1021 05:52:31.610887 22701 net.cpp:96] Setting up drop6
I1021 05:52:31.610898 22701 net.cpp:103] Top shape: 1 1024 64 64 (4194304)
I1021 05:52:31.610906 22701 layer_factory.hpp:78] Creating layer fc7
I1021 05:52:31.610918 22701 net.cpp:67] Creating Layer fc7
I1021 05:52:31.610927 22701 net.cpp:394] fc7 <- fc6
I1021 05:52:31.610941 22701 net.cpp:356] fc7 -> fc7
I1021 05:52:31.610956 22701 net.cpp:96] Setting up fc7
I1021 05:52:31.613231 22701 net.cpp:103] Top shape: 1 1024 64 64 (4194304)
I1021 05:52:31.613253 22701 layer_factory.hpp:78] Creating layer relu7
I1021 05:52:31.613267 22701 net.cpp:67] Creating Layer relu7
I1021 05:52:31.613276 22701 net.cpp:394] relu7 <- fc7
I1021 05:52:31.613287 22701 net.cpp:345] relu7 -> fc7 (in-place)
I1021 05:52:31.613298 22701 net.cpp:96] Setting up relu7
I1021 05:52:31.613306 22701 net.cpp:103] Top shape: 1 1024 64 64 (4194304)
I1021 05:52:31.613315 22701 layer_factory.hpp:78] Creating layer drop7
I1021 05:52:31.613324 22701 net.cpp:67] Creating Layer drop7
I1021 05:52:31.613334 22701 net.cpp:394] drop7 <- fc7
I1021 05:52:31.613344 22701 net.cpp:345] drop7 -> fc7 (in-place)
I1021 05:52:31.613356 22701 net.cpp:96] Setting up drop7
I1021 05:52:31.613365 22701 net.cpp:103] Top shape: 1 1024 64 64 (4194304)
I1021 05:52:31.613373 22701 layer_factory.hpp:78] Creating layer fc8_baxter
I1021 05:52:31.613387 22701 net.cpp:67] Creating Layer fc8_baxter
I1021 05:52:31.613396 22701 net.cpp:394] fc8_baxter <- fc7
I1021 05:52:31.613410 22701 net.cpp:356] fc8_baxter -> fc8_baxter
I1021 05:52:31.613425 22701 net.cpp:96] Setting up fc8_baxter
I1021 05:52:31.613551 22701 net.cpp:103] Top shape: 1 2 64 64 (8192)
I1021 05:52:31.613569 22701 layer_factory.hpp:78] Creating layer upscore
I1021 05:52:31.613584 22701 net.cpp:67] Creating Layer upscore
I1021 05:52:31.613593 22701 net.cpp:394] upscore <- fc8_baxter
I1021 05:52:31.613606 22701 net.cpp:356] upscore -> upscore
I1021 05:52:31.613620 22701 net.cpp:96] Setting up upscore
I1021 05:52:31.613631 22701 net.cpp:103] Top shape: 1 2 500 500 (500000)
I1021 05:52:31.613641 22701 layer_factory.hpp:78] Creating layer loss
I1021 05:52:31.613653 22701 net.cpp:67] Creating Layer loss
I1021 05:52:31.613679 22701 net.cpp:394] loss <- upscore
I1021 05:52:31.613690 22701 net.cpp:394] loss <- label
I1021 05:52:31.613718 22701 net.cpp:356] loss -> loss
I1021 05:52:31.613741 22701 net.cpp:96] Setting up loss
I1021 05:52:31.613757 22701 softmax_loss_layer.cpp:40] Weight_Loss file is not provided. Assign all one to it.
I1021 05:52:31.613770 22701 net.cpp:103] Top shape: 1 1 1 1 (1)
I1021 05:52:31.613778 22701 net.cpp:109]     with loss weight 1
I1021 05:52:31.613816 22701 net.cpp:170] loss needs backward computation.
I1021 05:52:31.613824 22701 net.cpp:170] upscore needs backward computation.
I1021 05:52:31.613832 22701 net.cpp:170] fc8_baxter needs backward computation.
I1021 05:52:31.613840 22701 net.cpp:170] drop7 needs backward computation.
I1021 05:52:31.613849 22701 net.cpp:170] relu7 needs backward computation.
…
